CS 260R - Reinforcement Learning/assignment2/dqn_trainer_metadrive_easy.pt (torch, 150982 bytes, 6 tensors)

action_value.0.weight f4 [100, 259]
-0.043155685 0.04457656 -0.02008367 -0.024086934 0.010462353 -0.054047644 0.042838067 -0.022179235
-0.021794219 0.025673551 0.04891909 0.057039253 -0.04590466 0.055394404 -0.050643824 -0.012891114
0.027599834 0.04602143 0.048941717 -0.038482632 0.04621508 -0.0041340063 0.06423052 -0.0028825356
0.014934715 0.031362534 0.063690305 0.055694673 -0.052763004 0.055877853 0.056244906 0.048063543
-0.02224926 0.031841345 -0.00019448793 0.045394387 -0.04317421 -0.031045033 -0.0015169499 -0.048949488
0.014779939 0.012855395 0.037393186 0.004905696 -0.045500573 -0.004479353 -0.04332367 -0.05976986
-0.028854918 -0.05697328 0.046324108 -0.04121588 -0.025439734 -0.013320938 0.001555297 0.0021300777
-0.050608937 0.0042792144 -0.039423812 -0.043976296 -0.03680332 -0.05762591 0.046793837 -0.04129799
0.02152638 0.0064406577 -0.02788294 -0.0053489995 -0.010314137 0.051989693 0.06419094 0.018740928
0.042539377 0.006380159 0.014158003 0.051324543 0.012785226 0.050513525 -0.03609825 -0.010528725
0.037217233 0.053588387 0.047370996 0.060412284 0.03987577 -0.050335173 0.06314907 -0.044421453
-0.055126425 -0.0045981747 -0.00462864 0.002093622 -0.0112325065 -0.011472132 -0.030951077 0.0026010661
-0.004297972 -0.040776037 0.020314356 0.03979237 -0.041580774 -0.025944682 0.037627365 0.026116325
0.031070432 -0.036303677 0.04554652 -0.04678558 0.008804961 0.04026008 -0.04497466 -0.006239366
-0.034149792 0.04133216 0.028803183 0.013063252 -0.043705218 -0.009368207 -0.03250139 0.03209415
-0.03105321 0.02666605 -0.023334267 -0.00022994497 -0.021059247 0.031403735 0.058790367 0.036841933
0.022851108 0.052830633 0.022182 0.036276493 0.033352334 0.03206779 0.042565983 0.016711943
0.022864519 -0.004678928 -0.025304692 -0.016709974 0.036004793 0.023622049 -0.041017115 -0.041750576
-0.034737565 0.017776748 0.05692396 -0.023210263 -0.045692347 -0.018106712 0.012231201 0.005821328
-0.036822513 0.025721667 -0.030709833 0.047670055 -0.020217756 -0.018539896 0.029045483 0.046226364
0.045124073 -0.0029049758 -0.03736036 -0.0393244 0.007764903 0.010139525 -0.010483541 -0.045774005
0.061657142 -0.03429066 0.035687562 0.024715675 -0.023739567 -0.036514636 -0.042012546 -0.022987666
-0.006367713 0.06118648 -0.009756632 0.02339073 0.042872515 0.02838665 0.04410581 -0.038439557
-0.03774954 -0.058880128 0.038005818 -0.010455806 -0.014115715 0.0010959541 -0.028550478 -0.023378069
-0.047876086 0.015513606 0.03534596 0.011673465 -0.00092438766 -0.0018228034 0.03895468 -0.014316702
0.06232166 -0.0022870284 -0.018398454 0.01829998 0.06254568 0.014771372 0.008239329 0.05962876
0.04316215 0.05417939 0.036731508 -0.0028159637 0.009281015 -0.00796808 0.010204881 -0.04168882
0.035180945 0.01247859 -0.04391634 -0.03821737 -0.0008443984 -0.028307961 0.021637594 0.013281055
0.027062653 -0.028387064 0.027035592 -0.037732188 0.041503 0.035907377 0.056599658 -0.01571058
0.022422222 0.021004288 0.045267407 -0.045953963 0.016954668 0.0225794 -0.045151383 -0.013043918
-0.054472107 -0.048666883 0.0034265756 0.021623192 0.018389558 0.020177854 -0.014478221 0.03943665
0.044720978 0.0032580048 -0.04539587 -0.028144805 -0.038046736 -0.0179561 0.001345136 0.053437896
00000000: 04c4 30bd e995 363d 8286 a4bc f651 c5bc
00000010: 4a6a 2b3c 1061 5dbd f876 2f3d 3ab1 b5bc
00000020: ca89 b2bc 5751 d23c 625f 483d fea1 693d
00000030: 8606 3cbd 3ee5 623d e66f 4fbd 4035 53bc
00000040: 0c19 e23c f880 3c3d 1c77 483d f79f 1dbd
00000050: 064c 3d3d 8f76 87bb 4a8b 833d ece8 3cbb
00000060: bcb0 743c 0076 003d 1070 823d 1920 643d
00000070: 051e 58bd 2de0 643d 0f61 663d 47de 443d
00000080: 1544 b6bc 126c 023d 75ef 4bb9 77ef 393d
00000090: 71d7 30bd 2752 febc 64d4 c6ba 427f 48bd
000000a0: 8f27 723c 6f9f 523c 9929 193d f6bf a03b
000000b0: cf5e 3abd 89c7 92bb 2974 31bd 3ed1 74bd
000000c0: 2661 ecbc d05c 69bd 59be 3d3d fcd1 28bd
000000d0: fd66 d0bc 1040 5abc 1cdb cb3a c698 0b3b
000000e0: 514b 4fbd a738 8c3b dd7a 21bd 7d20 34bd
000000f0: 14bf 16bd 2509 6cbd e5aa 3f3d 1528 29bd
00000100: 1758 b03c 270c d33b c36a e4bc a946 afbb
00000110: a0fc 28bc 25f3 543d 8a76 833d 9386 993c
00000120: c53d 2e3d a710 d13b f8f6 673c af39 523d
00000130: 2079 513c 45e7 4e3d c2db 13bd ac80 2cbc
00000140: 1971 183d 7f7f 5b3d 1708 423d df72 773d
00000150: c754 233d 412c 4ebd 4d54 813d 45f3 35bd
00000160: 3fcc 61bd 49ac 96bb d9ab 97bb 2635 093b
00000170: 8c08 38bc 9cf5 3bbc 1d8d fdbc a676 2a3b
00000180: 01d6 8cbb c604 27bd 4b6a a63c 53fd 223d
00000190: 9a50 2abd f189 d4bc 271f 1a3d e7f1 d53c
000001a0: 6b87 fe3c 2ab3 14bd fd8e 3a3d 3da2 3fbd
000001b0: af42 103c c1e7 243d 5937 38bd 9873 ccbb
000001c0: a7e0 0bbd e94b 293d a7f4 eb3c 4007 563c
000001d0: 3e04 33bd 1c7d 19bc 2d20 05bd 2875 033d
000001e0: 4d63 febc c372 da3c 8127 bfbc 621d 71b9
000001f0: 7184 acbc 34a1 003d 2bce 703d 91e7 163d
00000200: 3f32 bb3c ef64 583d 07b7 b53c a996 143d
00000210: 759c 083d 8459 033d ab59 2e3d 7ce7 883c
00000220: 5f4e bb3c b151 99bb c94b cfbc 5be3 88bc
00000230: c379 133d 0783 c13c 9001 28bd a702 2bbd
00000240: fa48 0ebd 8ba0 913c 1929 693d 7323 bebc
00000250: e627 3bbd 8754 94bc 6065 483c d7c0 be3b
00000260: 34d3 16bd 3fb6 d23c 3093 fbbc ad41 433d
00000270: b59f a5bc fbe0 97bc cbf0 ed3c db57 3d3d
00000280: 05d4 383d 6861 3ebb 2d07 19bd 9f12 21bd
00000290: ba70 fe3b 4020 263c 28c3 2bbc 867d 3bbd
000002a0: 338c 7c3d 5d74 0cbd 1f2d 123d 8778 ca3c
000002b0: 7b79 c2bc 5f90 15bd 5915 2cbd a150 bcbc
000002c0: 40a8 d0bb ad9e 7a3d 48da 1fbc eb9d bf3c
000002d0: 179b 2f3d 1f8b e83c 4ba8 343d cc72 1dbd
000002e0: 439f 1abd 4a2c 71bd fdab 1b3d d44e 2bbc
000002f0: 9a45 67bc 1ea6 8f3a b1e2 e9bc 5d83 bfbc
00000300: b719 44bd c82c 7e3c edc6 103d 1042 3f3c
00000310: 9b52 72ba 22eb eeba f18e 1f3d 9a90 6abc
00000320: ff44 7f3d f8e1 15bb 5bb8 96bc d7e9 953c
00000330: f317 803d a003 723c 40fe 063c 493d 743d
00000340: cbca 303d 35eb 5d3d c773 163d 088c 38bb
00000350: 660f 183c 8d8c 02bc 6032 273c e5c1 2abd
00000360: e519 103d 0073 4c3c 9fe1 33bd d189 1cbd
00000370: 9e5a 5dba 19e6 e7bc 5341 b13c c898 593c
00000380: 7fb2 dd3c fd8b e8bc bf79 dd3c 118d 1abd
00000390: 0dff 293d 9d13 133d 0bd5 673d 79b3 80bc
000003a0: cfae b73c 2f11 ac3c 516a 393d 393a 3cbd
000003b0: 84e4 8a3c 6ff8 b83c a8f0 38bd 28b6 55bc
000003c0: 251e 5fbd ed56 47bd 6690 603b 1f23 b13c
000003d0: b3a5 963c 074c a53c 0f36 6dbc 5388 213d
000003e0: 582d 373d 4084 553b 05f1 39bd ef8f e6bc
000003f0: e5d6 1bbd ac18 93bc 464f b03a b2e1 5a3d

action_value.0.bias f4 [100]
0.006566029 0.006833896 0.003101483 0.057984106 -0.002751319 -0.037994847 -0.06212424 -0.06127141
-0.0004541129 0.019438758 0.03803583 -0.058206737 -0.06017319 0.017901342 -0.024343848 -0.016876131
0.063525304 0.025075942 0.025201485 0.043523952 -0.0069432217 0.039529264 0.04252751 0.004705453
0.004469927 0.042366177 -0.00063156645 0.0058468804 -0.020756759 -0.020473698 0.042674433 0.049720038
0.006585814 0.061790146 -0.039080556 -0.026338562 0.030792627 0.0355901 0.058848348 -0.039107215
-0.050438046 -0.0052324086 -0.018800035 0.02803905 -0.015418824 -0.05084346 -0.043769564 0.050442398
-0.013970006 0.019796759 -0.027545352 -0.02433604 0.024812497 -0.021621536 9.217364e-05 -0.05495175
-0.011844348 -0.018643863 -0.053953372 0.043005507 -0.006894268 0.0013772622 0.04132323 0.03055837
0.033850826 -0.0053185634 -0.010797232 -0.016176295 -0.060080472 -0.003959842 0.011871969 0.028282294
-0.050283283 0.05736204 -0.008156206 0.0015496686 -0.0053755753 -0.02694793 0.058239877 0.023979813
0.037151054 0.047589872 0.032517456 -0.056042902 0.035185046 0.03722941 -0.047902077 -0.0035584432
0.014180751 -0.02133079 -0.03817089 -0.013360743 0.059976935 0.04099851 -0.027022617 0.04770419
-0.044356726 -0.018500581 0.0143604055 -0.046039946
00000000: d827 d73b e0ee df3b 4042 4b3b be80 6d3d
00000010: 794f 34bb 7ca0 1bbd fd75 7ebd bbf7 7abd
00000020: 0016 eeb9 083e 9f3c 75cb 1b3d 306a 6ebd
00000030: 2a78 76bd d6a5 923c c06c c7bc d03f 8abc
00000040: 8e19 823d 106c cd3c 5873 ce3c 2c46 323d
00000050: f783 e3bb 70e9 213d 5431 2e3d 3330 9a3b
00000060: 7778 923b 2888 2d3d b58f 25ba 3097 bf3b
00000070: 140a aabc 75b8 a7bc 63cb 2e3d 3da7 4b3d
00000080: d0cd d73b aa17 7d3d ef12 20bd f8c3 d7bc
00000090: d240 fc3c edc6 113d f70a 713d e32e 20bd
000000a0: 2098 4ebd a074 abbb 8802 9abc 26b2 e53c
000000b0: 3c9f 7cbc 3b41 50bd b747 33bd b09c 4e3d
000000c0: 74e2 64bc d02c a23c caa6 e1bc 605c c7bc
000000d0: 9443 cb3c a61f b1bc 594d c138 1615 61bd
000000e0: cc0e 42bc 04bb 98bc 36fe 5cbd 8b26 303d
000000f0: 50e9 e1bb 4085 b43a 8c42 293d 8c55 fa3c
00000100: 2aa7 0a3d 5847 aebb e0e6 30bc 2684 84bc
00000110: f116 76bd 90c1 81bb a682 423c 45b0 e73c
00000120: d8f5 4dbd 75f4 6a3d 9ca1 05bc 401e cb3a
00000130: 9825 b0bb e8c1 dcbc f08c 6e3d 5071 c43c
00000140: b42b 183d 99ed 423d 0631 053d 3e8d 65bd
00000150: 321e 103d de7d 183d f834 44bd c534 69bb
00000160: 6156 683c e9bd aebc 1459 1cbd 05e7 5abc
00000170: 60aa 753d 0eee 273d 895e ddbc 7865 433d
00000180: 66af 35bd 888e 97bc e847 6b3c 6294 3cbd

action_value.2.weight f4 [100, 100]
0.07701311 -0.06488297 -0.037933744 -0.09818878 0.020522334 -0.053326633 -0.08027031 0.090606414
-0.0015885681 -0.033134364 0.011448517 -0.06583873 0.046525024 -0.03441052 -0.06335566 0.07343467
-0.06852093 0.07695175 0.0033392757 -0.024925552 0.04428091 0.0978818 0.097843446 -0.005646847
0.09242339 -0.055488538 0.056428708 -0.061918367 0.09279556 -0.037935425 0.036018305 0.03940887
-0.008981422 -0.09328526 0.066107444 -0.022956297 -0.012000598 0.09604881 0.03949947 -0.016210213
-0.07980056 0.0034711584 0.0012057871 0.063949205 0.05338969 -0.08237912 0.09092719 0.012373842
0.079583116 -0.040912177 0.09455045 -0.05269468 -0.01128988 0.036241286 -0.03024678 -0.057826843
-0.096180715 -0.049470555 -0.04539416 -0.09107371 -0.008091629 -0.0666875 -0.03345021 -0.03332375
-0.0037699565 0.07442171 0.031872474 0.07519329 0.0928547 -0.09069335 0.001020804 0.048929878
0.061967142 0.05931329 0.019735321 0.031226315 -0.06970297 -0.09496607 0.035106294 0.06286497
0.045840867 -0.011625446 -0.046614815 -0.03106314 0.06155943 0.019427404 0.013293825 0.017356232
-0.015898265 -0.09656636 0.0010963678 -0.003605865 -0.09197912 0.06511753 -0.07030712 0.017868496
-0.09456722 0.089482166 -0.021036126 -0.07268087 -0.06639989 0.087671645 -0.07443984 -0.064798094
-0.051321223 -0.09024515 0.051849205 0.038048632 0.013072155 0.069184355 0.06945013 -0.0047055483
-0.071934864 0.031167269 0.08786937 -0.09332388 -0.025403157 0.08672389 0.031167872 -0.08350255
-0.08798078 -0.00084302574 0.040395744 -0.083888456 0.071451135 -0.09328602 0.0862957 -0.0019250661
0.07889121 0.096886046 0.057974115 -0.008470493 -0.040335476 -0.00042277173 -0.078367606 -0.09237876
0.07214148 0.021461647 -0.07852815 -0.06536709 0.09474059 -0.028230622 0.08022948 -0.060869142
0.046759017 0.039671727 -0.051201444 0.08553838 -0.07688993 0.09348298 0.048540942 -0.09663918
0.03505879 0.01277858 0.00019527433 0.02581548 -0.043395966 -0.005558014 0.058314808 0.06616531
-0.075299144 -0.063107654 0.004380579 -0.06598214 0.060448654 0.05982349 0.05883389 0.020010129
0.0050022453 -0.025964916 0.08337402 0.011748075 -0.028099954 0.09038401 0.011922255 0.050729685
0.031520154 -0.06576237 0.07124878 -0.04519358 -0.044286195 0.09651226 -0.0055173635 -0.05363193
-0.09772537 -0.0020298362 -0.006431006 0.0294314 0.054785464 0.09666157 -0.09223523 0.08807726
0.044786412 0.05345072 -0.070819125 0.03723962 0.01012761 0.08476371 0.01704131 -0.019331485
0.05122263 -0.02933147 0.059910797 -0.075634 0.10204406 -0.08053795 0.046644393 -0.045784008
0.0020874962 0.08949957 0.09281341 0.013445795 -0.0032648593 0.036409542 0.05700656 -0.04096223
0.08887328 0.014689878 0.047287114 -0.071205676 0.075388 0.08872431 0.032376446 0.026861072
0.06475382 -0.07865171 -0.09435623 0.016970024 0.0033986345 0.05982102 0.025308164 -0.051533785
-0.05533446 0.06791506 0.0878998 -0.04378257 0.030967558 -0.094579384 0.015948923 -0.08889639
-0.07858716 0.0977288 -0.049310196 0.04660132 0.066919126 0.092722185 -0.08716837 -0.050675657
0.08327342 0.010204151 -0.0071890205 0.05593937 -0.014718175 -0.021167532 0.046081305 -0.004256323
00000000: 0db9 9d3d 5de1 84bd 6a60 1bbd 3317 c9bd
00000010: 741e a83c 076d 5abd c364 a4bd db8f b93d
00000020: 8037 d0ba e6b7 07bd 9092 3b3c 75d6 86bd
00000030: 0691 3e3d 0cf2 0cbd 9dc0 81bd eb64 963d
00000040: b454 8cbd e198 9d3d c0d7 5a3b ac30 ccbc
00000050: e65f 353d 4176 c83d 2562 c83d 3009 b9bb
00000060: 7948 bd3d f347 63bd ca21 673d 1d9e 7dbd
00000070: 990b be3d 2d62 1bbd ee87 133d 326b 213d
00000080: d026 13bc 580c bfbd 5763 873d d80e bcbc
00000090: 289e 44bc 3db5 c43d 32ca 213d 48cb 84bc
000000a0: 7a6e a3bd 607c 633b 800b 9e3a cdf7 823d
000000b0: 26af 5a3d 62b6 a8bd 0938 ba3d a8bb 4a3c
000000c0: 79fc a23d 8793 27bd aba3 c13d 60d6 57bd
000000d0: 30f9 38bc be71 143d 18c8 f7bc d7db 6cbd
000000e0: 65fa c4bd a3a1 4abd 3aef 39bd da84 babd
000000f0: c092 04bc 7593 88bd 1603 09bd 7c7e 08bd
00000100: 6011 77bb 696a 983d b68c 023d f1fe 993d
00000110: 9b2a be3d 6fbd b9bd 80cc 853a b26a 483d
00000120: 42d1 7d3d 7ef2 723d f8ab a13c 54ce ff3c
00000130: 6ec0 8ebd 927d c2bd 9ecb 0f3d 59bf 803d
00000140: a2c3 3b3d a878 3ebc 2def 3ebd 2078 febc
00000150: be25 7c3d 3826 9f3c 58ce 593c a82e 8e3c
00000160: 143d 82bc 95c4 c5bd 00b4 8f3a 6050 6cbb
00000170: 8d5f bcbd 575c 853d 2efd 8fbd f460 923c
00000180: 75ac c1bd 6d42 b73d f453 acbc b5d9 94bd
00000190: aafc 87bd 318d b33d ea73 98bd ddb4 84bd
000001a0: 3436 52bd 73d2 b8bd d55f 543d e2d8 1b3d
000001b0: 982c 563c 87b0 8d3d df3b 8e3d 0031 9abb
000001c0: 9652 93bd 8052 ff3c dbf4 b33d 9720 bfbd
000001d0: 481a d0bc 4b9c b13d c453 ff3c 6303 abbd
000001e0: 442f b4bd 80fe 5cba 0276 253d b6cd abbd
000001f0: f954 923d be0c bfbd cdbb b03d 8052 fcba
00000200: b791 a13d 316c c63d 4476 6d3d d3c7 0abc
00000210: d036 25bd 76a7 ddb9 327f a0bd 1331 bdbd
00000220: eabe 933d 56d0 af3c 5ed3 a0bd 2edf 85bd
00000230: 5b07 c23d e843 e7bc 5b4f a43d ec51 79bd
00000240: 6286 3f3d d27e 223d 9bb8 51bd bf2e af3d
00000250: 7878 9dbd 0174 bf3d ded2 463d c3ea c5bd
00000260: ce99 0f3d 405d 513c 8ec2 4c39 fc7a d33c
00000270: f8bf 31bd 0020 b6bb 82db 6e3d ae81 873d
00000280: 7036 9abd 963e 81bd f68a 8f3b a521 87bd
00000290: 0299 773d 7a09 753d cefb 703d 48ec a33c
000002a0: e0e9 a33b 60b4 d4bc 00c0 aa3d ff7a 403c
000002b0: e031 e6bc 401b b93d 9055 433c eec9 4f3d
000002c0: 471b 013d 6cae 86bd e1ea 913d e71c 39bd
000002d0: 7165 35bd 38a8 c53d 00cb b4bb 28ad 5bbd
000002e0: 3d24 c8bd 0007 05bb 30bb d2bb 1f1a f13c
000002f0: b966 603d 80f6 c53d d3e5 bcbd da61 b43d
00000300: f571 373d 24ef 5a3d 9e09 91bd 9288 183d
00000310: 46ee 253c 9998 ad3d 389a 8b3c 105d 9ebc
00000320: d2ce 513d 8d48 f0bc 0665 753d 00e6 9abd
00000330: 7afc d03d 15f1 a4bd 310e 3f3d 0388 3bbd
00000340: 60ce 083b 8d4b b73d f514 be3d c04b 5c3c
00000350: 40f7 55bb 2c22 153d b67f 693d 03c8 27bd
00000360: 3203 b63d d0ad 703c 22b0 413d 48d4 91bd
00000370: 0665 9a3d 17b5 b53d 2a9d 043d c00b dc3c
00000380: a79d 843d 2614 a1bd d73d c1bd b804 8b3c
00000390: a0bb 5e3b e306 753d 1153 cf3c 1715 53bd
000003a0: 63a6 62bd 0d17 8b3d cf04 b43d 5a55 33bd
000003b0: adaf fd3c d6b2 c1bd 51a7 823c 4f0f b6bd
000003c0: 4ef2 a0bd 0926 c83d 7df9 49bd 07e1 3e3d
000003d0: e50c 893d 21e5 bd3d 5585 b2bd 4791 4fbd
000003e0: 418b aa3d 502f 273c e091 ebbb ae20 653d
000003f0: 8024 71bc 8867 adbc c0bf 3c3d a078 8bbb

action_value.2.bias f4 [100]
-0.079735994 0.081182994 0.0056279744 -0.033480823 0.08868377 0.0017217761 -0.09106086 -0.08238763
0.01402091 -0.019222062 0.05031618 0.038954303 0.035727102 0.07732349 -0.06100893 0.09046358
0.03896693 -0.0020686388 -0.05836799 -0.009417258 0.06065806 0.015952267 -0.06987969 0.036346503
-0.02161882 -0.019989578 -0.064018406 -0.09854094 0.04614007 -0.025250673 0.006404862 -0.059215058
0.05836182 -0.0884097 -0.035090413 0.08522252 -0.024594866 -0.0465385 -0.09536096 -0.013746757
0.043210488 -0.041502733 0.017773502 -0.07633132 -0.04685126 -0.09796114 0.08613342 -0.09099933
-0.01579003 -0.037504535 -0.004770241 0.04713529 0.061432146 -0.009105972 0.04381428 0.033274658
-0.09226663 0.04682954 -0.027646467 -0.021370541 -0.0038076416 0.008640589 -0.09968548 0.023899173
0.03638786 0.08121691 -0.05521441 -0.033715263 0.013680816 0.043527998 -0.016626015 -0.07749132
0.08553988 -0.043002546 0.06040712 -0.05009227 -0.05832051 0.07072082 0.023545979 -0.037267067
0.07062781 0.10017388 -0.053704657 0.07122899 -0.049707264 -0.0027749941 -0.08085354 -0.029498566
-0.0858889 0.017914843 -0.02047269 0.062601134 -0.051687967 -0.019837916 -0.081384555 -0.055561215
-0.015320286 -0.085357465 0.036075585 -0.022918224
00000000: a04c a3bd 4543 a63d df6a b83b 3023 09bd
00000010: d69f b53d 38ad e13a 1e7e babd d9ba a8bd
00000020: f5b7 653c 9677 9dbc 5718 4e3d 8c8e 1f3d
00000030: 9556 123d c75b 9e3d 80e4 79bd f844 b93d
00000040: ca9b 1f3d 0092 07bb 4613 6fbd d84a 1abc
00000050: 9674 783d 54ae 823c 151d 8fbd 12e0 143d
00000060: f419 b1bc 2fc1 a3bc 151c 83bd d5cf c9bd
00000070: 5ffd 3c3d 80da cebc e0df d13b 7d8b 72bd
00000080: ce0c 6f3d 2510 b5bd f7ba 0fbd 2589 ae3d
00000090: 2c7b c9bc 279f 3ebd 9b4c c3bd 143a 61bc
000000a0: 7bfd 303d c5fe 29bd bc99 913c 9853 9cbd
000000b0: 1be7 3fbd da9f c8bd b866 b03d db5d babd
000000c0: 185a 81bc 5b9e 19bd af4f 9cbb ef10 413d
000000d0: 46a0 7b3d 3731 15bc 9a76 333d 024b 083d
000000e0: 49f6 bcbd 55d0 3f3d d87a e2bc 4611 afbc
000000f0: a089 79bb 4291 0d3c e727 ccbd 33c8 c33c
00000100: 700b 153d 0d55 a63d 8128 62bd 0419 0abd
00000110: 8025 603c 6a4a 323d 4833 88bc c5b3 9ebd
00000120: 882f af3d 7023 30bd 756d 773d 8d2d 4dbd
00000130: 7de1 6ebd 14d6 903d 7fe3 c03c 5aa5 18bd
00000140: 50a5 903d f727 cd3d 6af9 5bbd 81e0 913d
00000150: d899 4bbd addc 35bb 8a96 a5bd faa6 f1bc
00000160: 85e6 afbd 26c2 923c 58b6 a7bc 0635 803d
00000170: c3b6 53bd 2083 a2bc f2ac a6bd 2894 63bd
00000180: f001 7bbc e5cf aebd fec3 133d 00bf bbbc

action_value.4.weight f4 [9, 100]
-0.04426515 -0.00017742475 -0.024888562 0.0068445737 0.05339843 0.03606355 -0.07622601 0.0073116524
0.039266117 0.024921408 -0.06263763 -0.03536191 0.05612651 -0.078278325 -0.013636269 0.059465326
-0.038197115 -0.07133982 0.09809927 -0.017226472 0.060033623 -0.009535752 0.042470276 -0.0073403493
0.04706321 -0.09457039 -0.06448519 0.018786494 0.05546229 -0.038231656 -0.057185996 0.009811521
0.04756743 0.027195282 -0.010588654 0.059693385 0.033212565 0.032295518 -0.020715259 -0.05039458
0.02673967 0.056663014 -0.06625497 -0.02640076 0.08582298 0.035392188 0.07574605 0.012038346
-0.07022332 0.020973215 -0.020323154 -0.058221787 0.009781719 -0.024148565 0.070584185 -0.07886253
-0.039897222 0.0427472 -0.061492912 0.07042198 -0.067264974 0.07386892 -0.08309625 -0.040271997
-0.0112980185 0.029702563 0.09252168 0.09983838 -0.030467287 0.036856033 -0.0546769 -0.008227326
0.03316815 -0.022910178 0.07150511 0.05299122 0.0898184 0.04689213 -0.020149002 -0.044335138
0.0063849436 0.048244536 0.06944568 -0.076481774 0.0021521624 -0.06931768 -0.0053770924 -0.06508344
0.09846098 -0.002360822 -0.09710238 -0.053697947 0.09764705 -0.008062519 -0.025700077 -0.016252233
-0.0995785 0.079761446 0.05679585 0.007672049 -0.027091049 -0.070451334 0.023280896 0.008493808
-0.04994193 -0.022727476 -0.003301972 0.009776065 0.06378518 0.065051034 -0.029306944 0.08868079
0.038218282 0.00402312 -0.05704179 -0.09782464 -0.09305151 -0.072800316 -0.06447323 -0.02932483
0.032212265 -0.07107681 0.02899732 -0.07064837 -0.043099917 0.04384541 0.09702479 0.069771305
-0.02753254 0.0064897705 -0.018757164 -0.012023784 -0.06600685 -0.06755778 0.014169185 0.02367549
-0.08779954 0.03401483 -0.06810324 0.01440166 -0.07250483 -0.0747757 -0.019015284 -0.015240893
-0.048510984 0.029140018 0.10128959 -0.020358458 0.079075344 0.04821906 0.01035774 -0.0049814796
0.008015538 -0.06416625 0.013701335 -0.06419337 0.015128472 0.08113675 -0.06320285 0.05570036
0.033992894 0.097178094 -0.09517526 -0.022269111 -0.09180614 -0.008217056 0.057977587 0.060965605
0.089521684 0.024034305 -0.037761297 -0.09065496 -0.002257946 0.012358226 0.032195278 0.045086227
0.037010796 -0.02055378 0.043889668 -0.06881364 -0.009669448 -0.032432437 0.0015869369 -0.08232851
0.0087505365 0.06268033 -0.023811754 -0.05740103 -0.09404409 0.02359749 -0.039606333 0.0016939794
0.03698314 -0.09203453 0.06000627 0.084701605 0.020755455 0.0038637277 -0.055693336 -0.076825775
-0.019449428 -0.015063407 0.06568652 0.051230796 0.0061258413 -0.054268423 -0.041555714 0.065633304
0.048720956 -0.025564905 -0.087649286 -0.048644334 -0.031288993 -0.020978943 -0.056368317 0.045304354
-0.014522896 -0.033365533 0.075285815 0.046957556 0.013923979 -0.06463535 0.09444535 0.04560078
0.04985652 0.01992848 -0.035735175 0.08858863 0.042917605 -0.033897772 0.026103146 -0.06808251
-0.06346101 0.0052716956 0.012011078 0.041940484 0.014446758 -0.06030978 0.072609015 0.013369949
0.011563345 0.059711948 -0.094837494 -0.061869502 0.09632374 -0.06701992 0.009181389 -0.011553146
0.003506042 -0.07299688 -0.036554504 -0.018869223 0.039179794 0.07744349 0.0634009 -0.09107335
00000000: 604f 35bd 180b 3ab9 19e3 cbbc 7248 e03b
00000010: 50b8 5a3d 5fb7 133d 621c 9cbd 9696 ef3b
00000020: 82d5 203d fb27 cc3c 2848 80bd a6d7 10bd
00000030: e9e4 653d 6350 a0bd a86a 5fbc ea91 733d
00000040: 9474 1cbd 9d1a 92bd 45e8 c83d 881e 8dbc
00000050: d1e5 753d d83b 1cbc 50f5 2d3d 5087 f0bb
00000060: 5ac5 403d 1fae c1bd d010 84bd 22e6 993c
00000070: 6d2c 633d cc98 1cbd dd3b 6abd 80c0 203c
00000080: 11d6 423d a4c8 de3c 097c 2dbc 0d81 743d
00000090: e609 083d 4e48 043d 0cb3 a9bc 8c6a 4ebd
000000a0: 270d db3c 7a17 683d b0b0 87bd 6846 d8bc
000000b0: f5c3 af3d 66f7 103d bf20 9b3d 7c3c 453c
000000c0: 3ed1 8fbd 05d0 ab3c be7c a6bc f879 6ebd
000000d0: 8143 203c 36d3 c5bc 718e 903d ae82 a1bd
000000e0: 456b 23bd b017 2f3d fedf 7bbd 6639 903d
000000f0: 38c2 89bd 9748 973d 5e2e aabd 40f4 24bd
00000100: 531b 39bc ca52 f33c 027c bd3d 1178 cc3d
00000110: 8896 f9bc 5af6 163d e3f4 5fbd e8cb 06bc
00000120: 53db 073d 20ae bbbc 4571 923d 520d 593d
00000130: b6f2 b73d f611 403d 850f a5bc c398 35bd
00000140: ca38 d13b 109c 453d 8939 8e3d 7aa2 9cbd
00000150: 4b0b 0d3b 6ef6 8dbd 5232 b0bb 774a 85bd
00000160: e9a5 c93d 05b8 1abb 9ddd c6bd 61f2 5bbd
00000170: 2dfb c73d a818 04bc f888 d2bc 6723 85bc
00000180: d0ef cbbd f859 a33d c4a2 683d d065 fb3b
00000190: 0cee ddbc ca48 90bd 94b7 be3c 9d29 0b3c
000001a0: e98f 4cbd f92e babc e665 58bb ca2b 203c
000001b0: cea1 823d 7a39 853d 1e15 f0bc 469e b53d
000001c0: c68a 1c3d 60d4 833b a7a4 69bd 4958 c8bd
000001d0: ca91 bebd 5518 95bd 8a0a 84bd a03a f0bc
000001e0: 02f1 033d b890 91bd ca8b ed3c 18b0 90bd
000001f0: 8a89 30bd 3f97 333d efb4 c63d 42e4 8e3d
00000200: ec8b e1bc 24a8 d43b a0a8 99bc 68ff 44bc
00000210: 992e 87bd bc5b 8abd df25 683c 1af3 c13c
00000220: 3fd0 b3bd 2253 0b3d b679 8bbd f1f4 6b3c
00000230: 6a7d 94bd 0124 99bd f1c5 9bbc f0b4 79bc
00000240: 74b3 46bd 0cb7 ee3c eb70 cf3d c8c6 a6bc
00000250: 41f2 a13d 5981 453d 83b3 293c ae3b a3bb
00000260: 9a53 033c 9869 83bd 907b 603c d077 83bd
00000270: 69dd 773c 062b a63d 7f70 81bd 1026 643d
00000280: 223c 0b3d 4f05 c73d 3feb c2bd b66d b6bc
00000290: dc04 bcbd d5a0 06bc e879 6d3d 12b7 793d
000002a0: 2557 b73d 97e3 c43c 97ab 1abd 4fa9 b9bd
000002b0: 0cfa 13bb 287a 4a3c 32df 033d 56ac 383d
000002c0: a298 173d 6760 a8bc a7c5 333d 2aee 8cbd
000002d0: 9b6c 1ebc e0d7 04bd c400 d03a da9b a8bd
000002e0: 695e 0f3c 8b5e 803d de10 c3bc 581d 6bbd
000002f0: 309a c0bd 864f c13c 403a 22bd 8408 de3a
00000300: a27b 173d 9a7c bcbd 22c9 753d 0978 ad3d
00000310: 5807 aa3c 9836 7d3b b21e 64bd d556 9dbd
00000320: 6854 9fbc 82cc 76bc a786 863d 62d7 513d
00000330: 48bb c83b 9148 5ebd 5336 2abd c16a 863d
00000340: a08f 473d 7e6d d1bc 7881 b3bd 483f 47bd
00000350: e328 00bd 08dc abbc 77e2 66bd 0f91 393d
00000360: 71f1 6dbc 4caa 08bd 732f 9a3d 9156 403d
00000370: 6721 643c 8a5f 84bd 906c c13d e2c7 3a3d
00000380: 5a36 4c3d 0d41 a33c 0c5f 12bd f56d b53d
00000390: 5fca 2f3d 64d8 0abd 44d6 d53c d86e 8bbd
000003a0: d9f7 81bd 30be ac3b 1dca 443c c9c9 2b3d
000003b0: 18b2 6c3c 6307 77bd 09b4 943d a10d 5b3c
000003c0: 2f74 3d3c 8494 743d 293a c2bd e06a 7dbd
000003d0: 6245 c53d bd41 89bd 896d 163c 6849 3dbc
000003e0: a0c5 653b 637f 95bd 2dba 15bd a193 9abc
000003f0: fe7a 203d b19a 9e3d 55d8 813d aa84 babd

action_value.4.bias f4 [9]
-0.028291862 0.08942873 -0.054291844 -0.060710475 -0.0879156 -0.08788882 -0.08274943 -0.0901771
-0.015320542
00000000: 56c4 e7bc 6926 b73d 2061 5ebd 8cab 78bd
00000010: 180d b4bd 0eff b3bd 8878 a9bd c5ae b8bd
00000020: 0303 7bbc
