CS 260R - Reinforcement Learning/assignment2/pg_trainer_metadrive_easy.pt (torch, 151100 bytes, 6 tensors)

network.action_value.0.weight f4 [100, 259]
00000000: 9095 663d 9cab 103d 685b 07bc 5a57 083d
00000010: 1007 eb3b 366a 7e3d d84b e33c a012 443d
00000020: e037 21bc 9c97 703d 96c8 41bd 50ae e73b
00000030: 7473 06bd a8fe e6bc a0bb ebbb e801 a93c
00000040: c025 0fbb 34f5 553d 28cb 0a3c 184e fd3c
00000050: 78b0 d2bc dcd3 c93c 80f4 5bbc e0a1 73bd
00000060: 5475 493d 4887 6b3d 04bf d23c deac 543d
00000070: 1c35 2d3d 4446 283d 222d 6f3d 163b 1a3d
00000080: 4534 3bbd 6ea8 603d f665 083d 1887 783d
00000090: 047f 10bc 4483 923c 50cf d1bb 18e7 adbb
000000a0: b2f8 063d 082c aebc 70ac c33b 3063 203c
000000b0: 9d4d 77bd 0652 173d 400a 203c c0d4 27bb
000000c0: 7281 3f3d 5049 25bb be84 6abd 4e15 13bd
000000d0: cac6 68bd 7616 493d 6c04 3f3d 4c65 9a3c
000000e0: 6b3c 49bd d4a3 a9bc c61b 49bd 9202 4bbd
000000f0: 7a62 97bc b623 09bd 20ff a53c 8aac 18bd
00000100: 6ea2 40bd d0c8 eb3c 8a4c 383d cc29 21bd
00000110: 2075 0ebd 903e 4cbc 0df6 49bd c01c 243c
00000120: 6cae 543d 229e 2cbd c6f4 77bd 501c d1bb
00000130: 8a56 44bd a052 743b c511 71bd a6c3 29bd
00000140: fc88 753d 6634 26bd 3c8a 6fbc 124c 68bd
00000150: be52 b4bc 207f 80ba b62c 89bc 929c 003d
00000160: 30a9 35bd dc45 533d 8233 7bbd 607d f83b
00000170: b1d3 76bd eb89 6dbd a86c 233d 2852 023c
00000180: 1013 e5bc dafb 49bd c04c 22ba ca15 49bd
00000190: c162 4cbd 5e05 253d c021 fc3b 3c80 e0bc
000001a0: 415e 63bd f0fb 06bd 806b ff3c ec33 613d
000001b0: ab71 72bd b873 5f3d 8496 923c 0cdb 1e3d
000001c0: ea36 4ebd 18cd 9e3c 4a44 73bd 30f0 693d
000001d0: 90fa cb3b 3463 65bd 4c7f 42bc b4e9 50bd
000001e0: d2b2 6dbd 9263 643d 7ca4 dbbc c40a ac3c
000001f0: 16d8 563d c859 46bd 308f 733c 629b 31bd
00000200: 248f 8abc 645d 083d 8673 0c3d 663a 523d
00000210: c865 c53c c016 bd3a 1e43 e3bc ae2e f0bc
00000220: 6e64 cfbc aa60 50bd f4b5 813c 364d 793d
00000230: 547e 74bd 80d6 d73c 82c6 37bd 1a84 26bd
00000240: 741d ce3c 40b6 503c ec88 febc 0cc1 84bc
00000250: 82f5 283d 3600 91bc 3e5e 1e3d 746d 78bd
00000260: 1c7d 5bbd 33ad 0fbd f8d6 4abc dba4 02bd
00000270: a832 ee3c 0e75 1a3d 7025 303d 42c5 1ebd
00000280: 8e78 3abd 8be6 14bd b04f ba3b 8046 2b3b
00000290: 7420 84bc d8fc 59bc 7cff f63c a4ae 0d3d
000002a0: 8c9d debc 58ef 8b3c 1845 6cbc f203 20bd
000002b0: 0029 23ba 50fc 533d 76b4 3fbd 969d 34bd
000002c0: 53c2 3fbd 4a14 c8bc b015 d4bb 6035 353b
000002d0: 50df 7abb de59 79bd 30b4 653c 68df 053d
000002e0: eedd 58bd e793 55bd ea20 16bd b844 2abc
000002f0: 2090 673b 7a7a 163d 88ef f5bc e217 543d
00000300: 528a 3e3d 68cd 7b3d 881a 203c 2492 b9bc
00000310: 8c53 1fbc ce95 3e3d bfbf 3fbd a3cd 69bd
00000320: 7f73 48bd 437c 13bd 7844 f3bb d0bb 6d3d
00000330: a883 0b3c 3c6f bbbc 2c5a e13c 88da b1bc
00000340: 58ea ed3c a071 8d3b b407 eb3c d28a 14bd
00000350: d09e 613d 2d2b 71bd ca8e e4bc b65f 6a3d
00000360: b0a7 343c 08b1 193d 581f 0ebd e920 0fbd
00000370: 0a33 693d ea91 c8bc d86d 493d e4ee 32bc
00000380: 404e 2cba 884a 3d3c 2a74 63bd 7e7d 203d
00000390: c8a9 5dbc 92fb d1bc e89c e03c 78ae 0c3d
000003a0: f21d 20bd ba6e 21bd 82f3 d2bc 64cc b43c
000003b0: 5e2a 273d 1014 d83b d0d9 c93b 88b4 96bb
000003c0: b8cc b6bb 745e 4dbd f4de 41bc 7c87 e3bc
000003d0: 5c7e 413d d40f 203d 00e6 be3a 78af 123d
000003e0: 4017 173d a8e0 d2bb 6002 cbbb 2098 e43c
000003f0: 804b a4b9 049a 533d e666 22bd d00d 3bbd
0.056294978 0.03531991 -0.008261539 0.03328643 0.007172473 0.06211301 0.027746126 0.047869325
-0.009839982 0.058738336 -0.047310434 0.00707034 -0.03282495 -0.028197601 -0.0071939975 0.020630792
-0.002184257 0.052235797 0.008471288 0.030921027 -0.025718912 0.024637155 -0.013424993 -0.059480548
0.04918416 0.05750206 0.025725849 0.05192267 0.042286977 0.041082636 0.05839265 0.037654005
-0.045704145 0.054848127 0.033300363 0.06067571 -0.008819345 0.017884858 -0.0064028874 -0.0053070895
0.032952018 -0.02126123 0.005971484 0.009789273 -0.060376752 0.036943458 0.009768069 -0.0025608987
0.046754308 -0.00252207 -0.0572555 -0.03590899 -0.056830205 0.049093686 0.046635076 0.01884713
-0.049129885 -0.020708002 -0.049098752 -0.049562998 -0.018479574 -0.033481322 0.020263255 -0.03727392
-0.047029905 0.028782278 0.04499487 -0.0393465 -0.034779668 -0.012466088 -0.049306918 0.01001662
0.051924154 -0.042142995 -0.06053617 -0.006381549 -0.047934093 0.0037280694 -0.058854837 -0.04144635
0.05994509 -0.040577315 -0.01462036 -0.05671317 -0.02201211 -0.0009803511 -0.016744953 0.031399317
-0.044350803 0.051580295 -0.06132842 0.0075833052 -0.06026048 -0.057992857 0.039898545 0.007954158
-0.027963191 -0.04931245 -0.0006191246 -0.049093045 -0.049898867 0.04028832 0.007694453 -0.027404897
-0.05550981 -0.03295511 0.03117919 0.054981157 -0.059190433 0.054553717 0.017894037 0.038783118
-0.05034534 0.019384906 -0.059391297 0.057113826 0.0062249377 -0.05600281 -0.01187117 -0.051004127
-0.058031864 0.05575902 -0.02681183 0.021001227 0.05245217 -0.048425466 0.0148656815 -0.043361075
-0.016913958 0.03329219 0.03428986 0.051325224 0.024096385 0.0014426336 -0.027741965 -0.029319134
-0.025316443 -0.050873436 0.015833832 0.06086465 -0.05969079 0.026347399 -0.044867046 -0.040653326
0.025160529 0.012738764 -0.031071149 -0.016205333 0.04124976 -0.017700296 0.038664095 -0.060651258
-0.05358611 -0.035077285 -0.012380354 -0.0318955 0.02907689 0.03770929 0.043004453 -0.03876234
-0.045525126 -0.036352675 0.005685769 0.002613455 -0.016128756 -0.013304912 0.030151121 0.03459038
-0.027174734 0.017081901 -0.01442077 -0.039066263 -0.0006224066 0.051754296 -0.04680296 -0.0440956
-0.04681618 -0.024423737 -0.006472312 0.0027650222 -0.0038280077 -0.06087672 0.014020011 0.03268376
-0.052946024 -0.052143004 -0.036652483 -0.01039236 0.0035333708 0.036737897 -0.030021444 0.05178059
0.04651863 0.061475188 0.009771951 -0.022652693 -0.009724509 0.046529584 -0.046813723 -0.057080876
-0.04893827 -0.036007177 -0.0074239336 0.05804044 0.008515276 -0.02288019 0.027508818 -0.02171065
0.029042408 0.0043165237 0.028690197 -0.036265202 0.055083096 -0.058879066 -0.027900118 0.057220183
0.011026308 0.037522346 -0.03469786 -0.034943495 0.05693344 -0.02448364 0.04917702 -0.010921214
-0.00065729395 0.011553414 -0.055530705 0.03918218 -0.013529249 -0.025632653 0.027418569 0.034346074
-0.039091058 -0.039412238 -0.02575088 0.022070117 0.04081189 0.0065941885 0.0061599985 -0.0045991577
-0.0055786036 -0.050138906 -0.011832941 -0.027774565 0.047239646 0.039077595 0.0014564395 0.03581187
0.036887407 -0.0064354725 -0.0061953515 0.02790457 -0.0003133677 0.051660553 -0.039648913 -0.04566747

network.action_value.0.bias f4 [100]
00000000: ccbc 693d 001a 1c3d d5a0 0c3d 6a63 f9bc
00000010: ec4d db3c 8bbe 293d 1dd4 32bd a8ee 89bd
00000020: f37e 1fbd 2474 35bd c9ec 17bd 2adb a8bc
00000030: aa8d b0bc 10c8 a13b b0f7 2bbd 6c0e 7cbb
00000040: 3d56 26bd 861a 4d3d f43e 2d3d c86c 4e3d
00000050: c2ce 8fbc 7f30 9cbc ecd8 06bd 1444 34bc
00000060: b059 aa3b 96c4 0dbd 6c60 043d 138f 6ebd
00000070: ce34 86bd 28e8 893c 9ec5 acbc a566 d13c
00000080: b5af 543b a1ba 92bc 007f b23c c26b 573a
00000090: ba10 37bd 18f4 00bd 945a 593d f4f3 393c
000000a0: 3878 f73c 8095 053d 2005 3bbc 2ef6 5c3d
000000b0: a880 543d 730d 9abb 8667 bbbc e0eb d3bc
000000c0: 4433 59bd 1448 1e3d ed0d ca3c 6c0a f63c
000000d0: 7abb 71bd c05d bdba 065f 293d c4c7 583d
000000e0: fabd 48bd d416 f7ba 2a58 0fbd 40f2 c4ba
000000f0: aa57 cebb 394a 8ebc 5964 763d f465 e7bc
00000100: 3e22 663d 7cfb d7bc 44a3 3f3d 9f09 cf3c
00000110: 04a2 173d 2e06 37bd 9427 193c 20f1 243d
00000120: 9c61 63bd 892b 653d 8093 643a e27c 3e3d
00000130: 9cee 62b9 6c83 a9bc f809 b3bb 2c99 fc3c
00000140: 199e 4a3a d8df d13c 93b7 0bbd 681a 5c3c
00000150: c0b0 c23a d669 b839 e376 d23c cd74 533d
00000160: 54ce b53c 87f1 0d3d 5c8b 35bd 215c 30bc
00000170: 5905 bfbc 3044 de3c 68a7 fcbc 3854 2b3c
00000180: ffe1 663b a45e 17bd e0a9 613d 128c cbbc
0.057064816 0.038110733 0.03433307 -0.030442912 0.026770554 0.04144148 -0.04365932 -0.06734973
-0.038939428 -0.044300213 -0.03709105 -0.020612318 -0.021551926 0.0049371794 -0.04198426 -0.0038460745
-0.040609587 0.050074123 0.042296365 0.05039671 -0.017554644 -0.019066093 -0.032921717 -0.011002559
0.00519868 -0.034611307 0.032318518 -0.058241915 -0.065530404 0.016834334 -0.021090325 0.02556164
0.0032453362 -0.017911257 0.021789074 0.0008217656 -0.044693686 -0.031482786 0.053064898 0.011349667
0.030208692 0.032613277 -0.011414796 0.053945713 0.05188051 -0.0047013103 -0.022876512 -0.02586931
-0.053027406 0.038642958 0.024664843 0.030034266 -0.059016682 -0.0014447495 0.041350387 0.052924886
-0.0490093 -0.0018851408 -0.03499619 -0.0015025809 -0.0062970715 -0.017369376 0.060154293 -0.028246857
0.056185 -0.026365034 0.04678656 0.025273142 0.037019745 -0.044683628 0.009347815 0.040269017
-0.05551301 0.05594972 0.0008719489 0.046505816 -0.00021641928 -0.02069255 -0.005463835 0.030834757
0.0007729247 0.025619432 -0.034110617 0.01343403 0.0014853701 0.0003517407 0.025691455 0.05162506
0.022193111 0.034654167 -0.044322357 -0.010764153 -0.02331798 0.027132124 -0.030841544 0.010457091
0.003522992 -0.03695549 0.055093646 -0.024847064

network.action_value.2.weight f4 [100, 100]
00000000: 9e1c 423d e8eb 09bc fd25 77bd 9d3b 8ebd
00000010: c4dd d33c 5599 e7bd 21c8 ba3d b03d 393c
00000020: 2e0e 273e 051a c93d 52d8 80bd 7443 ff3d
00000030: d719 38bd 808d febb 1809 2ebc 9180 dc3d
00000040: 3016 a93b e494 cf3c b3d2 41be 1d83 c43d
00000050: 1a15 69bd 75cc 99bd 3dfd b1bd 004a f33b
00000060: f463 b0bc db62 9dbc ac71 383e 80ac d6ba
00000070: 1218 073d 2115 cb3d 3b4d b33d 9801 19be
00000080: 8cf2 2cbe 9664 bd3d b6d0 17bd 2a2d 10bd
00000090: a8ba eabc a036 24bd cd3b 51bd b7a3 033e
000000a0: bdbb acbd ba2c b8bd 90e2 16bc c277 ed3d
000000b0: 9c17 0bbe 11c0 b93d 586c 233c 66b8 753d
000000c0: e7fc 873d 10a2 133c 1296 6a3d 0ef5 143d
000000d0: 7f77 ae3d ed26 68bd 88a9 b33c 0262 0e3d
000000e0: c977 513e 34d9 1fbe b073 803b 7419 b53c
000000f0: c2bb 323e 55a8 c13d 6c1b 9bbd aa56 343d
00000100: 2361 9f3d 7488 81bc 69ec a33c ccd9 e3bc
00000110: 526f 513d 8e54 543e aac2 20be a773 c43d
00000120: 8757 c23d aa25 0c3e 9bb4 c2bd cf6b a33d
00000130: 60aa cd3b 384b e2bc 8330 4bbd ae45 82bd
00000140: c257 dfbb cbb1 ba3d 48d1 b0bc 409a e3bc
00000150: d0aa e23b 511b c03d 5468 be3d 3a8d 293d
00000160: 7d97 893d 21c7 33be e045 c23b 74df 8dbc
00000170: 5cd8 6b3d 253c 2bbe af51 9e3d 86fa 82bd
00000180: 94db 15bd 406c 8ebc 669d 2c3e 69ef 9a3d
00000190: e60a 07bd 5a8d 623d 58de 83bc 1727 b4bd
000001a0: e848 9c3c f509 bfbd a9ac 973d 70bd 90bd
000001b0: faa9 88bd eeb5 9abd 3c13 12bd f8f3 97bc
000001c0: b08c 473c 97c1 33bd 1fb9 c63d 75b0 8abd
000001d0: 5573 c43d 9ee8 743d f56c acbd 3b82 ca3d
000001e0: 5514 8abd 87b2 873d 0983 8a3d 94dc 993c
000001f0: b333 a33d 6a15 06bd ba02 49bd ad60 4abd
00000200: 614d b43d 509a a5bb e04d 1ebd 5182 973d
00000210: 80a4 88bc 8eef 96bd 6d69 a63d 52e4 133d
00000220: 856d acbd fa10 5c3d 6168 853d b368 863d
00000230: e3f4 c8bd 92ce 513d e0df d23b bafa 043d
00000240: 6c8a f7bc 9eb4 99bd 8071 193a 79a1 8a3d
00000250: ee0d 343d 801b 83ba 0bd2 903d b628 013d
00000260: 61f2 9a3d a3ee 20bd fde8 c4bd 1f3f 973d
00000270: 8b71 933d 3879 97bc a5e3 81bd 54c7 9fbc
00000280: e338 a53d c655 5a3d 6a9e 9cbd e6bd 3b3d
00000290: ca53 043d 503f 7c3c fa9b 63bd c0a0 653c
000002a0: 68bc e1bc ca0c 88bd a769 4abd 2fcb b53d
000002b0: 466c 463d 4002 633b e792 c0bd ca6b cabd
000002c0: 471c b83d 6611 a0bd e743 a33d 1262 363d
000002d0: f020 5c3c f80c 8dbc ec11 89bc fc72 f93c
000002e0: 3947 c83d dd6b b6bd 6c72 a1bc a22b 783d
000002f0: c00f 873c aa9b 6bbd 10c5 5cbc 5595 c83d
00000300: 9eb1 1c3d 2418 e33c 801b b83a 1502 9dbd
00000310: 0991 c13d 5629 5c3d d3fd 33bd cc6f 98bc
00000320: c082 edba 9acc 20bd 3a9f 5abd e859 bc3c
00000330: c3dd 873d 10da 63bc 832a a73d 5440 8abd
00000340: 005a fb3b ce7b 5b3d caee 42bd 82c0 263d
00000350: c9a2 c43d c816 803c 2dda be3d c00d 7c3b
00000360: 453e c2bd 96f6 93bd 0065 233a 39fe b63d
00000370: 4d42 b4bd c7c5 be3d 2e7a 83bd 225c 3c3d
00000380: 80d5 1bba 7093 243c 9236 ccbd bb53 aabd
00000390: 5d84 b9bd 0a29 3ebd ade1 8fbd 3a9a a1bd
000003a0: b00b 3fbd 401f b73c f41c 04bd 522d 94bd
000003b0: f457 adbc 2582 9f3d 342e e13c faf0 8cbd
000003c0: 3017 e83b bd54 86bd c32e 94bd 6882 923c
000003d0: 70b7 22bd 005f 603c 370d 76bd b06d 633c
000003e0: 82c6 5c3d ebc0 8e3d 8049 c23c 2773 1fbd
000003f0: 7412 cebc 07c9 853d 2ec0 333d 2377 7abd
0.047390573 -0.008418061 -0.060338963 -0.06944964 0.025862582 -0.11308543 0.09120203 0.011306211
0.16314003 0.09819416 -0.0629126 0.124640375 -0.044946518 -0.007768333 -0.010622285 0.107667096
0.0051601157 0.025339551 -0.18928032 0.095953204 -0.05690489 -0.075097 -0.086908795 0.007424593
-0.021532036 -0.019212177 0.18012112 -0.0016378313 0.03298194 0.099161394 0.08754965 -0.14942014
-0.168894 0.09247701 -0.037064277 -0.03519932 -0.028653458 -0.040091157 -0.05108242 0.12855421
-0.08434246 -0.08992906 -0.00920929 0.115951076 -0.13583225 0.09069837 0.009974562 0.05999031
0.06640034 0.009010807 0.057272024 0.036366515 0.08518886 -0.056677748 0.021931425 0.034761436
0.2045585 -0.156102 0.003920041 0.022106864 0.17454436 0.09455935 -0.0757359 0.04402796
0.07782199 -0.015812136 0.02001019 -0.027813815 0.051131554 0.2073538 -0.15699258 0.095923714
0.09489351 0.13686243 -0.09507104 0.07979547 0.006276414 -0.027623758 -0.04960681 -0.063609466
-0.0068158815 0.091159426 -0.021584168 -0.027783513 0.006917335 0.0938021 0.09297243 0.04139445
0.06718347 -0.1755643 0.00592874 -0.017318465 0.057579383 -0.16722162 0.07730424 -0.0639544
-0.03658636 -0.017385602 0.16856918 0.07565195 -0.032969378 0.055310585 -0.016097233 -0.08796518
0.019077733 -0.09328071 0.07405979 -0.07067382 -0.066730455 -0.075542316 -0.035662875 -0.01854895
0.012179539 -0.043885794 0.09703278 -0.06771938 0.0959231 0.059792154 -0.084192194 0.09888121
-0.06742159 0.06625848 0.06763274 0.018781938 0.07968845 -0.032735266 -0.049074866 -0.049408603
0.08803821 -0.005053796 -0.038648486 0.07397903 -0.016680002 -0.0736991 0.08125577 0.036106415
-0.08419327 0.053727128 0.06514049 0.065629385 -0.098123334 0.05122239 0.0064353794 0.032465674
-0.030217372 -0.07505153 0.00058533996 0.0676908 0.043958597 -0.0010002702 0.070713125 0.031532966
0.07565761 -0.03929008 -0.096147515 0.07385086 0.07199391 -0.018490419 -0.06342248 -0.019504227
0.08067491 0.053304456 -0.076474026 0.0458354 0.03230647 0.015395954 -0.055568673 0.014015377
-0.02755566 -0.06643064 -0.049417164 0.08876645 0.0484431 0.0034638792 -0.094030194 -0.098838404
0.089897685 -0.078158185 0.07971936 0.04452712 0.013435587 -0.017218098 -0.016732179 0.030450337
0.0977921 -0.08907292 -0.01970788 0.060588486 0.016487002 -0.0575215 -0.013474718 0.09794108
0.038255326 0.027721472 0.0014046282 -0.07666413 0.094514914 0.05375036 -0.043943238 -0.018607996
-0.0018120632 -0.039257623 -0.053374507 0.02299209 0.066340946 -0.013906971 0.08162405 -0.06750551
0.007670641 0.053584866 -0.04759101 0.040710934 0.09601361 0.015635863 0.093189575 0.0038460344
-0.09484533 -0.07224767 0.0006233007 0.08935208 -0.08801708 0.09315067 -0.06419788 0.045986302
-0.0005944595 0.010044917 -0.09971346 -0.083167516 -0.090584494 -0.046425857 -0.07025466 -0.078907445
-0.046642005 0.022353768 -0.032254174 -0.07235207 -0.021160103 0.07788495 0.027487852 -0.068819
0.0070828423 -0.06559131 -0.072354816 0.017884448 -0.03972572 0.013694525 -0.060071196 0.013881132
0.05390025 0.0697039 0.023716688 -0.038928177 -0.025155284 0.065324835 0.04388445 -0.061148774

network.action_value.2.bias f4 [100]
00000000: bac2 793d b00d f83b 3735 c1bd 38f0 183d
00000010: 2774 57bd 7e6d febc d1bf bc3d ed51 cfbd
00000020: 81f1 a43d 5e73 013c 1055 763c 40e1 1f3b
00000030: 329f 0abc efd8 b13d cceb 103e 221c 873c
00000040: 94c4 c0bc 9cdf 83bd a293 303d 7b8c 80bd
00000050: c007 2dba 994b 57bd 7d7c b7bd ab08 b6bd
00000060: e3ba 3bbd ad12 6f3d c199 723d c8aa 1cbd
00000070: e8e5 6ebc 3b6a a33d f2f2 973d a5c8 893d
00000080: 0646 a53c 1c80 223e 7b0c e33d c3dc a13d
00000090: 48e0 99bd bcc7 0d3d 1c29 99bd fddf 9a3d
000000a0: 768d 8b3d d4d9 8cbc 4c22 ec3d 4005 be3c
000000b0: cc3f 96bc 0093 b53d 7d4a a6bc 0d8d 8a3d
000000c0: a0d1 463d 3615 4c3e 6087 953d 3fbf 833d
000000d0: 846b c43b 4551 973d 1882 ffbc 4bd2 b03c
000000e0: 4dac a73d 00f5 2d3c 176e 60bd cba1 c83d
000000f0: 3f60 bb3d 84bd a23d fe1a 283e 7ef0 7e3d
00000100: 2a1f 44bd 35b7 88bc e611 703d 57be a63d
00000110: 772c b53d b0eb 883b f078 783d 2d64 013d
00000120: 2022 203d 5e45 543a 0f5a cd3c 9479 42bd
00000130: 9870 39bd 7c83 a538 847e bebd d561 8d3d
00000140: badb 61bd a01b 3d3d 4e7d 283e 43ed d23c
00000150: 25d3 f53b e67b d6bc 6817 e23d 9cb2 18bc
00000160: d740 b93c 6178 983d bdb9 2cbe cf60 9e3d
00000170: 1c7d 6a3d 4fae 843d 8ac1 683d 3f7e b73d
00000180: be6c 39bd c026 33bb 2e17 b5bd f209 97bc
0.06097672 0.007569991 -0.09433978 0.037338465 -0.052601006 -0.03105807 0.092162736 -0.10123048
0.08053876 0.007901041 0.015034929 0.0024395734 -0.008460807 0.08683955 0.1415245 0.016492907
-0.023531236 -0.064391345 0.043109544 -0.062767945 -0.0006600581 -0.05256233 -0.08959291 -0.08888372
-0.045832526 0.05836742 0.059228662 -0.038248807 -0.014581181 0.07979246 0.07419385 0.06727723
0.020174991 0.15869182 0.11086365 0.07903435 -0.075134814 0.03461431 -0.07478544 0.075622536
0.06814091 -0.017193712 0.11529979 0.023195863 -0.018340968 0.08865929 -0.02029919 0.067651846
0.048539758 0.19929966 0.07301211 0.06432962 0.005994262 0.07388548 -0.031189963 0.02158465
0.08187161 0.010617495 -0.05479249 0.097964846 0.09149217 0.079463035 0.16416547 0.06224107
-0.047881283 -0.016688922 0.05861082 0.08141773 0.088463716 0.0041784868 0.06066221 0.031589676
0.039095044 0.0008097495 0.025067357 -0.047479227 -0.045273393 7.892304e-05 -0.09301475 0.069034256
-0.05514119 0.046168923 0.1645405 0.0257479 0.007501977 -0.026182126 0.11039621 -0.009319928
0.022613926 0.074448355 -0.16867729 0.077333085 0.05724822 0.06478559 0.0568252 0.089596264
-0.04526972 -0.002733633 -0.08842312 -0.01843736

network.action_value.4.weight f4 [9, 100]
00000000: 2ef7 2ebe a24e 9bbd 7d78 a6bd 0663 30be
00000010: 19b8 a53d 521c 14be 5009 2dbd 22d1 313e
00000020: 9c14 81bd 9f4e 573e 72ee 513e c032 1abc
00000030: 6c97 1dbe a991 1f3e 43d8 54be 9e43 72be
00000040: b315 c4bd 4cdc cc3d b4d9 e1bc 239d 253e
00000050: c9ca 023e 3d3a 1abe d862 aabc f977 933d
00000060: 7d46 df3d 6260 9dbb aba2 2dbe 6e4d 623e
00000070: 883f 8a3c 4810 68be fb32 6a3e 3d37 2cbd
00000080: 34b9 eebd fa17 7fbe ba96 12be 4387 48bd
00000090: 7680 6b3d 844c 80bc d70e 97bd d2f1 5a3e
000000a0: c387 26be 808f e2bc 3a52 44be baba 76bd
000000b0: 80c3 31bd 3849 c23b 67b5 3dbe ee3d 013e
000000c0: 4b32 4fbe acee fcbd 9a6c 65be 0c76 38be
000000d0: 37c7 993c 8df2 4ebd 3dfe 2bbd 86f6 6b3d
000000e0: 31fa 78be a8e7 8bbc c0ee d3bd e08a 61be
000000f0: cdc9 09be 1916 483e 86be 6abe 9e91 9b3d
00000100: 82fb 173d feba 813c 9c21 08be 2f04 5abe
00000110: 5280 433e 8153 8f3d 84f3 51be 1af3 3b3c
00000120: 68d9 11be 6789 71bd 6873 03bc 3933 1c3e
00000130: b5a6 69be 844a 3bbe 5086 4dbe 5a29 183d
00000140: 0cbb cebc 3a6e 193e d2ef 5cbe 0fc9 533a
00000150: 5a4f 49be 378f 8a3c be35 21be 93c3 4d3e
00000160: 7e79 18be 0c90 29be ea18 14be ded9 55be
00000170: 1f1b d23d 7a05 78bd f517 3f3e e89e aebc
00000180: ab42 583e 7cf5 36be eb65 233d 0f15 5e3c
00000190: 4230 a53c 8ba0 943d 40bd 0bbb 9dd7 c63d
000001a0: 20e1 983b d00e 143e 87ef 27bd 5f41 91bd
000001b0: 2015 d6bb 071d 16bd 31ce e0bd a003 fcbb
000001c0: 8087 cabd 65d5 08be 96e1 b93a 15b0 2a3e
000001d0: 2842 a13c 4ad7 843d 0122 233c 0764 aabc
000001e0: 3774 123b 1ccf 093d 142c d7bc c320 8fbd
000001f0: 1d1c 9c3d 6325 d03c 059c d33d 8f22 e7bd
00000200: 1282 543d 5608 083d 8e23 1cbd 2c15 e3bc
00000210: 7886 0a3e 2691 ce3c 1e47 183d 0a67 b3bd
00000220: c704 a83d 6010 66bc 607f d7bd 08bd 323c
00000230: f51a 0e3e 50f4 eb3b f91b 083d 407c 373b
00000240: 7b69 983d 28a3 23bd 60d3 54bd 33e0 6ebd
00000250: 1fb5 0fbc d0e4 97bd 9f8e 0a3d f8c8 0b3e
00000260: 1fde 0fbd e0ce 883b 6112 b03d da9c 0b3d
00000270: 1c38 b03d e860 603c 2bc8 9abd 3631 35bd
00000280: 55e3 a8bd 9919 0bbe 06d9 d0bc 90c6 52bd
00000290: 5315 8e3d 4171 203d dc9f 2abe e8e3 b03d
000002a0: fcaa 56bd 00fa 7639 1a34 e23b c6bf 80bd
000002b0: fbbc 183e a26b 00bd 7653 a8bd 5c51 42bd
000002c0: 9f30 a13b 1ef5 693d c7c2 f3bd 4aa1 143d
000002d0: 80cf 923b f92b 393d 0154 94bc fab8 04bd
000002e0: 70f6 b3bd 0db9 61bc 1cb0 ca3c 1e1a a4bd
000002f0: b92e a43d d5dc e93c 08b2 283d 0b36 ef3d
00000300: caa0 ff3c 0607 3f3d 7133 e6bd 5080 f4bb
00000310: 20c8 d2bd 2ee6 e5bc a629 a03d 515b 25bd
00000320: f993 b4bd 18af 53bc f311 c13d a495 e93d
00000330: bbef 8e3d 9587 8b3d 3000 40bd eb2a 11be
00000340: 60c6 e43b c80d d7bd c279 3bbd a790 3abd
00000350: 2ff4 17be 0e65 15be 36e2 aa3d b96d 213e
00000360: f4d2 cbbc 10eb 9bbd 87d1 e4bc ac8d febd
00000370: 86bf 983d 5eb3 853c 5a4b 12bd 3f0a b03d
00000380: d006 7e3c c128 803d c972 753c 7e21 03be
00000390: efc9 f9bc 18b4 e53d 7624 833b 00a7 123b
000003a0: 8811 cfbc a4fe 903d 8fb5 1bbc b41c 3ebd
000003b0: 827f 743d e410 da3c 5734 193d c190 d9bc
000003c0: 3ca6 f33d fe3b 613d 8f17 ca3d 00a4 603b
000003d0: 68b7 90bd ea57 0bbd 1584 81bd ebc5 42bd
000003e0: 7725 5fbd a9eb cebd 1b62 d03d 4536 45bd
000003f0: 2480 203c e70e b73d ffb3 b43d d7c7 a4bd
-0.17086479 -0.075833574 -0.0812845 -0.17225274 0.080917545 -0.14463928 -0.04224521 0.17364934
-0.06302759 0.21026085 0.20501116 -0.009411514 -0.15389794 0.15582909 -0.20785622 -0.23658606
-0.09574451 0.10002956 -0.02756963 0.16173224 0.12772669 -0.15061279 -0.020799085 0.07200617
0.109021164 -0.0048027495 -0.16956584 0.2209985 0.016875997 -0.22662461 0.2287101 -0.042044867
-0.116564184 -0.2491149 -0.1431531 -0.04895712 0.057495557 -0.015661485 -0.07375877 0.2138131
-0.16262726 -0.027656317 -0.19171992 -0.06023667 -0.043399334 0.0059291385 -0.18526231 0.1262128
-0.20234029 -0.123502105 -0.2240471 -0.18013781 0.01877175 -0.050524283 -0.041990507 0.05760815
-0.2431419 -0.017078236 -0.10348272 -0.22025633 -0.13455887 0.1953968 -0.22924241 0.07596134
0.03710509 0.015836235 -0.13294071 -0.21290658 0.19091919 0.06998349 -0.2050305 0.011471534
-0.1424309 -0.058968928 -0.00802312 0.15253915 -0.228175 -0.18290144 -0.20070767 0.03714881
-0.025235675 0.14983454 -0.21575859 0.00080789713 -0.19659176 0.016913993 -0.15743157 0.20094137
-0.14890096 -0.16558856 -0.14462629 -0.20883891 0.10259079 -0.060552098 0.18661483 -0.021316007
0.21119182 -0.17867082 0.03989212 0.013554825 0.020164613 0.07257184 -0.0021322519 0.09709094
0.004665509 0.14458776 -0.040999915 -0.07092547 -0.00653328 -0.036648776 -0.10976828 -0.007690862
-0.09889126 -0.13362654 0.001418161 0.16668732 0.019684866 0.06486376 0.009956838 -0.02079965
0.0022347101 0.03364478 -0.026266135 -0.06988671 0.0762255 0.025408452 0.10332493 -0.112858884
0.051881857 0.033211075 -0.038119845 -0.027720056 0.13527858 0.025215697 0.037177198 -0.087598875
0.08204036 -0.01404199 -0.10522342 0.010909326 0.13877471 0.007200755 0.0332298 0.0027997643
0.07441994 -0.03995052 -0.051959395 -0.05831928 -0.00877121 -0.074166894 0.03382742 0.13650882
-0.03512394 0.004175052 0.085972555 0.034085132 0.08604452 0.013694979 -0.0755771 -0.044236384
-0.08246485 -0.13583983 -0.02549411 -0.051458895 0.06937661 0.039170507 -0.16662544 0.0863722
-0.052409157 0.0002355352 0.0069031836 -0.06286578 0.1491584 -0.031352647 -0.08219044 -0.04744087
0.004919126 0.057118528 -0.11902385 0.03628663 0.0044803023 0.04520795 -0.018106462 -0.03240297
-0.087872386 -0.01377703 0.024742179 -0.08012794 0.08016724 0.028547684 0.04118541 0.1168023
0.0312046 0.046637557 -0.112402804 -0.007461585 -0.10292077 -0.02806386 0.07820444 -0.04037029
-0.08817286 -0.012920164 0.09427252 0.11405495 0.06979319 0.068129696 -0.04687518 -0.14176528
0.006981656 -0.105006754 -0.045770414 -0.045548107 -0.14839242 -0.1458933 0.083439276 0.15764512
-0.024880864 -0.07613194 -0.027931942 -0.124293655 0.07458405 0.01632088 -0.035716392 0.08595704
0.015504554 0.06257773 0.01498098 -0.12805745 -0.030491797 0.11215991 0.004002149 0.0022377372
-0.025276914 0.07079819 -0.009503736 -0.046414092 0.059691913 0.026619382 0.03740343 -0.026558282
0.11896941 0.054988854 0.09867775 0.003427744 -0.07066232 -0.03401939 -0.06324021 -0.04755203
-0.05447909 -0.10103542 0.10174962 -0.04814746 0.009796176 0.08938389 0.08823394 -0.08045929

network.action_value.4.bias f4 [9]
00000000: fe06 7fbd 2a6c b8bd 9cb1 2bbe 96f2 d3bd
00000010: 2284 643c 0f11 b2b9 98b3 933d c48a 213e
00000020: 43d6 4dbc
-0.062262528 -0.09005006 -0.16766971 -0.10349004 0.013947519 -0.00033963515 0.07211989 0.15775591
-0.012563291
