CS 260R - Reinforcement Learning/assignment2/pg_trainer_wb_metadrive_easy.pt (torch, 151130 bytes, 6 tensors)

network.action_value.0.weight f4 [100, 259]
000000 52 b5 2e 3d d8 ad 3c 3d 20 75 6a 3d ec 06 b1 bc
       0.04265339 0.046064228 0.057240605 -0.021609746
000010 40 63 92 3c dd 37 25 bd 3e a1 7d 3d 44 64 1a bd
       0.017869592 -0.04033648 0.06192135 -0.037693277
000020 80 76 05 3d 0e 4c 6c bd 48 34 89 bb 92 48 4a bd
       0.032583714 -0.05768972 -0.0041871406 -0.049385615
000030 ce 96 a7 bc 08 8d 11 3d 82 c6 7d bd 08 bf 5f 3c
       -0.020457651 0.03553489 -0.06195689 0.013656385
000040 f4 20 67 3d 32 6d 02 3d cc c7 36 3d 4e a8 30 bd
       0.05642791 0.031842418 0.044624135 -0.043129258
000050 0b 36 38 bd e0 89 1c 3c 80 0c 25 bc a0 c6 8a 3c
       -0.044973414 0.009554356 -0.010073781 0.016940415
000060 20 bd 9a ba 28 25 86 3c 80 3e 86 3a d8 73 63 3d
       -0.0011805631 0.01637514 0.0010242015 0.0555304
000070 0c 12 c2 3c 38 85 8c bb 08 9c 65 3d 92 47 d1 bc
       0.023690246 -0.004288342 0.056057006 -0.025546823
000080 0e 79 47 bd b2 c7 19 3d e8 ec 3b 3d d0 a0 a9 bb
       -0.04869943 0.03754396 0.04588023 -0.005176641
000090 9c df 69 bd 9c ce db 3c 44 b2 3c bd ec a1 af 3c
       -0.057098016 0.026831917 -0.046068445 0.021439515
0000a0 e8 b3 de 3c 44 0b 77 bc b4 4a 4a bd 24 74 5e 3d
       0.027185395 -0.0150783695 -0.04938765 0.05430998
0000b0 f8 97 88 3c bc ef 1f 3d 8a 04 c1 bc 95 06 45 bd
       0.016674027 0.039046988 -0.023561735 -0.04810198
0000c0 e0 73 6b bc e8 7c 6e 3c a8 5e 61 3c 38 9e 86 bb
       -0.0143708885 0.014556147 0.013755478 -0.0041082166
0000d0 a8 f7 f9 3c a8 5a 23 3c 58 e4 81 3c fa 16 4c bd
       0.0305136 0.009970345 0.015855953 -0.0498266
0000e0 2c 6a 9c 3c 52 95 e5 bc b0 83 b4 3b 5c 21 e5 3c
       0.019093595 -0.028025303 0.0055088624 0.027970009
0000f0 08 4b d8 3c 08 e5 2f 3c d4 6b 49 bd e5 21 0d bd
       0.026402965 0.010735758 -0.0491751 -0.034456152
000100 4c f4 22 bd 08 86 41 bc ac 8b 47 bc 98 50 bc bb
       -0.03978376 -0.011811741 -0.012179296 -0.005746912
000110 26 af 33 3d d4 bd e8 bc 76 93 62 3d 5c d9 60 bc
       0.043868206 -0.02841083 0.05531641 -0.0137236975
000120 10 d1 70 bb 1e 0e 49 3d 72 92 cd bc 96 fd 39 bd
       -0.0036745705 0.04908573 -0.025094245 -0.045407854
000130 9a e1 05 3d 88 5d f3 bc 84 27 2f 3d 00 94 21 3a
       0.032685854 -0.029707685 0.042762294 0.00061637163
000140 b0 7d b0 3c 94 80 27 bc 64 f9 0b bd e8 55 63 3d
       0.021544307 -0.0102235265 -0.034173384 0.05550185
000150 12 d8 5e 3d 2c f7 09 3d 40 ff 06 bb 08 2a 4b 3c
       0.05440528 0.033682987 -0.0020598918 0.012400158
000160 26 3a 6d 3d 80 c2 0c 3a f0 c8 3f bb 1c 0c be 3c
       0.057916783 0.0005369559 -0.0029264055 0.023199134
000170 2f 1d 47 bd 1a 13 d8 bc 3a 23 1a 3d 70 bb d1 bb
       -0.048611816 -0.026376296 0.03763125 -0.006400518
000180 66 f0 07 3d 74 88 94 3c 3e 5c 46 3d 90 ae c1 bc
       0.033188246 0.018131472 0.048427813 -0.023642808
000190 aa c2 62 3d 63 ae 4f bd 60 9c 5f 3c 7a 90 1d 3d
       0.055361427 -0.050703418 0.013648123 0.03846786
0001a0 26 10 16 bd 92 05 05 3d 60 01 6c 3c e0 10 06 bb
       -0.036636494 0.032476015 0.014404625 -0.0020456836
0001b0 0e 87 23 bd 1e cd 70 bd 62 ba 12 bd 88 74 f1 3c
       -0.03992372 -0.058789365 -0.03582228 0.029474512
0001c0 48 06 16 3d e0 bb 76 3c 34 19 4a bd 70 40 77 bb
       0.036627084 0.015059441 -0.04934044 -0.0037727617
0001d0 0c 48 56 bd 9b 87 5f bd cf ff 58 bd e0 d1 c8 ba
       -0.052314803 -0.054572683 -0.052978333 -0.0015321337
0001e0 2a 96 06 3d 1e 84 37 bd ee c0 5b 3d d0 aa f7 3b
       0.03285805 -0.04480373 0.05365079 0.0075582042
0001f0 65 55 45 bd 62 27 44 bd ad 28 4a bd 58 19 91 3c
       -0.04817714 -0.04788912 -0.049355198 0.01771228
000200 56 95 f4 bc 00 e2 a1 bb 4e c2 46 3d 5a 12 2d bd
       -0.029856365 -0.0049402714 0.048525147 -0.04225383
000210 78 25 e1 bc a4 89 8d 3c b2 0e 38 bd 38 ae b9 bb
       -0.027483687 0.017277546 -0.04493589 -0.0056665204
000220 1e ac 25 3d d2 5e 0d bd 62 0c 47 bd 70 4a 38 bd
       0.040447347 -0.034514256 -0.048595794 -0.044992864
000230 80 2a a8 3b 70 30 d8 3b 86 9d 3f bd 04 b4 73 3d
       0.0051320195 0.006597571 -0.046781085 0.05949785
000240 1b 66 12 bd 82 44 60 3d 0e c7 e8 bc be 70 47 3d
       -0.035741907 0.054752834 -0.02841523 0.048691504
000250 20 bb 5d 3c 60 f9 72 bb 10 01 1e bb a4 43 ba bc
       0.013533384 -0.0037074909 -0.002410952 -0.022737332
000260 5c d6 2c 3d 60 ce b9 3c 24 cd eb bc 5a cf 01 bd
       0.042196617 0.022681415 -0.028784342 -0.031691886
000270 4c 64 26 bd 48 57 d5 bb 60 5e 05 bd 64 78 7a bd
       -0.040622994 -0.006510649 -0.032560706 -0.06114997
000280 c0 21 03 bb 12 cc 34 bd c4 9c d1 bc a5 b0 09 bd
       -0.002000913 -0.04413993 -0.025587447 -0.033615727
000290 a0 a3 73 bb 04 39 d8 bc 40 04 a3 3c d0 1f 9c bc
       -0.0037176386 -0.026394375 0.019899487 -0.019058138
0002a0 e0 44 f9 3b 44 fc 79 bd 0c 53 9a bc dc 10 1a bc
       0.0076070875 -0.061031595 -0.018838428 -0.009403434
0002b0 2c 22 f5 3c cc fa 76 bd fe f7 3b 3d cc 98 d1 3c
       0.029923521 -0.060297772 0.0458908 0.025585555
0002c0 2c bb e9 bc 2e 3c 6b 3d be 48 60 3d 0c 14 4c 3d
       -0.028531633 0.05743044 0.054756872 0.049823806
0002d0 18 ff a2 3c c8 d4 d8 3c da 2f 39 bd e5 91 47 bd
       0.019897029 0.02646865 -0.04521165 -0.04872312
0002e0 70 d3 e9 bc ea 0c 77 3d 8c 66 9e bc 5c a8 24 bc
       -0.028543204 0.06031505 -0.019336008 -0.010049906
0002f0 74 be 65 3d a0 d2 ce ba 21 39 67 bd de dc d0 bc
       0.056089833 -0.0015779324 -0.056450967 -0.025495943
000300 e4 58 31 bd 0a 35 e9 bc a4 21 1c 3d 24 ad 32 3d
       -0.043297663 -0.028467674 0.03811802 0.04362215
000310 ad 74 46 bd 9c fd 53 3d 3d 75 28 bd 30 6e 2e bc
       -0.048451114 0.051755533 -0.041127432 -0.010646388
000320 9a 88 5a 3d 18 43 64 3d c4 73 80 3c 96 9e 47 bd
       0.05335293 0.055728048 0.015680201 -0.048735224
000330 86 e5 19 3d b8 ce b4 bc 4a 94 92 bc 66 88 3c bd
       0.037572406 -0.022071227 -0.017892975 -0.046028517
000340 78 7d 53 bc d4 eb 03 bd cf f3 fd bc e9 dc 19 bd
       -0.012908332 -0.032207325 -0.031000046 -0.037564192
000350 a8 46 bc 3c 72 9b 08 bd e0 af 61 3d 90 34 2d bb
       0.02298291 -0.03335137 0.055099368 -0.0026429035
000360 12 f3 02 bd b6 35 62 3d 0c 8c 84 3c 18 d0 37 3d
       -0.03197009 0.055227004 0.01618006 0.044876188
000370 ae 39 26 bd 90 de 29 3d a0 a8 f7 ba 28 f8 8c bb
       -0.04058235 0.041472018 -0.0018894859 -0.0043020435
000380 b7 88 78 bd 56 51 4b bd f5 d2 43 bd 32 3d 78 3d
       -0.060677256 -0.049638115 -0.047808606 0.060605235
000390 9c d5 87 3c 9d 11 fd bc 2e a8 04 bd 40 70 c6 ba
       0.01658135 -0.030892188 -0.03238695 -0.0015139654
0003a0 e0 7e 0c 3c 38 53 16 bd f4 05 88 3c 3b 62 58 bd
       0.008575171 -0.036700457 0.016604401 -0.052828055
0003b0 d2 cb 3a 3d 99 4d 74 bd 22 60 8c bc d0 33 44 3c
       0.045604534 -0.059644315 -0.017135683 0.011975244
0003c0 70 a9 1b 3c b0 3a 0c 3d 84 e3 0e 3d 0e fc 34 bd
       0.009500846 0.034235656 0.034884945 -0.04418569
0003d0 3e 0b 0f bd 12 d3 31 bd 47 dd 2f bd 13 bb 40 bd
       -0.03492283 -0.043414183 -0.042935636 -0.047053408
0003e0 9a 6b 9c bc 0e 51 59 bd 2c 31 bc bc cc 59 23 bd
       -0.019094277 -0.053055815 -0.022972666 -0.03988056
0003f0 08 72 eb bc a6 fb e6 bc d0 dc c0 3b ce 37 61 bd
       -0.028740898 -0.028196167 0.005885698 -0.05498486

network.action_value.0.bias f4 [100]
000000 10 1f 14 bc 14 cc 42 3c 34 72 08 3d 37 fc 47 bd
       -0.009040609 0.011889476 0.033312038 -0.048824515
000010 a0 d9 00 bd f7 e9 2f bb 84 49 95 bc aa 6d 4c bd
       -0.031457543 -0.0026842335 -0.018223532 -0.04990927
000020 0a 38 45 3d 52 9a 6b 3d 5e a5 31 3d db f9 71 3d
       0.048149146 0.05752022 0.043370597 0.05907617
000030 90 eb a1 3b 42 dd 67 3d 39 7a 43 bd 58 ae a6 bc
       0.0049414113 0.056607492 -0.047723982 -0.020346805
000040 a2 63 39 3d 48 91 62 3d 6c 22 4c 3d 00 e0 b3 3c
       0.045261033 0.055314332 0.049837515 0.021957397
000050 98 0c 6f 3c db fa a4 3b bc 3d 26 bc af 6d 61 3d
       0.014590405 0.005034787 -0.010146555 0.055036243
000060 16 c6 c4 bc 8b 17 70 bd be b6 79 3d 70 df 9f 3b
       -0.024020236 -0.058616202 0.060965292 0.0048789307
000070 4c f2 16 bd c3 e9 14 bd 10 60 bc bb fa 7e 93 bc
       -0.036852166 -0.036355745 -0.005748756 -0.018004883
000080 80 f9 5d ba 44 b7 25 bd 75 e2 44 bd fd ca dc 3c
       -0.00084676594 -0.04045798 -0.04806753 0.026952261
000090 b7 4a 1d bd ec b8 11 bc 80 5d 72 3d 9c 8e 80 bd
       -0.03840133 -0.0088941865 0.0591712 -0.062772006
0000a0 e7 82 62 bd ce 77 76 3c c0 42 6b 3d 4a a7 a1 bc
       -0.05530062 0.015043212 0.057436705 -0.01973309
0000b0 c4 8e cc 3c ce b0 6f bd 80 43 2e 3d 28 b7 4f 3a
       0.02497042 -0.058518223 0.04254484 0.0007923716
0000c0 40 83 c1 bc ea 00 78 3c cc dc 41 bd 62 b7 f4 bc
       -0.023622155 0.015136937 -0.04732971 -0.0298726
0000d0 c6 2a 15 3d 26 99 0a 3d f0 32 11 3c 37 69 0e bd
       0.036417745 0.03383746 0.008862242 -0.03476831
0000e0 2f 08 37 bc 87 2f c6 bc 17 33 c9 3c 1e f9 39 bd
       -0.011171385 -0.024192585 0.024560494 -0.045403592
0000f0 1d 46 3b 3d 68 99 1e 3c 28 6a eb bc 9f eb a2 bc
       0.045721162 0.00968013 -0.028737143 -0.019887744
000100 68 1b 25 3d 80 8e b1 3b 08 50 be 3c a1 2f 13 bc
       0.04030934 0.0054185987 0.023231521 -0.008983524
000110 20 fa 91 3b d0 2c 02 bc 36 68 f4 3b 96 64 55 bd
       0.004454866 -0.007945254 0.007458712 -0.05209788
000120 c7 fc 9f bc dd 52 76 3c c2 09 1b 3d 93 15 2a 3c
       -0.019529713 0.015034405 0.037851103 0.01038112
000130 88 25 e7 3c 7e a4 5c bc c8 b9 d3 bb c5 9e 8f bc
       0.028216138 -0.013466952 -0.006461356 -0.017531762
000140 80 fe 3c 3d ad 8b 7d bd bc 69 cf 3c 86 31 05 3d
       0.046141148 -0.061900783 0.025318973 0.032517932
000150 ef 9a 0a 3d 45 fb 66 bd 8c 99 0e 3d aa e6 25 bd
       0.033839162 -0.056391973 0.034814402 -0.04050318
000160 ed 78 e3 3c b8 47 79 3d b2 1d 50 bd a2 8f 2a 3c
       0.027767623 0.060859412 -0.05080957 0.010410221
000170 4c 5f a5 bc 64 86 1f 3b 04 35 1a bc 9c b9 bb 3c
       -0.020187043 0.0024341578 -0.009412054 0.022915654
000180 0b 7a 92 3c 27 73 4d bd 10 c4 07 bd a6 85 6b 3d
       0.01788046 -0.050158646 -0.033145964 0.057500504

network.action_value.2.weight f4 [100, 100]
000000 d0 26 33 3c 57 29 96 bb 10 13 0b 3c c8 74 d5 bd
       0.010934547 -0.004582565 0.008488432 -0.10422665
000010 e6 6e 88 bd b5 8e ba bc 11 d9 8f 3d 68 6c 92 bc
       -0.06661777 -0.022773126 0.07023824 -0.017873958
000020 d0 d6 55 bc 9a 7f 6c 3d d3 3f ab 3d 5b c0 f2 3d
       -0.013051704 0.057738878 0.08361783 0.11853095
000030 c1 0c c9 3d fd 60 bc bd 0d 01 c4 bd 56 31 83 bc
       0.09816886 -0.091981865 -0.09570513 -0.016014736
000040 9a 84 3b 3d d0 5c 2b bc ec 5a f5 3c c1 4e cc 3d
       0.045780756 -0.01045914 0.029950581 0.099759586
000050 7a 8e a2 bd e0 48 7d bc cc 87 df bc 07 9a 46 bd
       -0.079373315 -0.015459269 -0.027286433 -0.048486736
000060 c9 2a 8c bd 45 a3 3b bd ce db 8d bd c1 d0 c2 3d
       -0.06844098 -0.045810003 -0.0692669 0.09512473
000070 e3 d2 c3 bd 89 45 20 3c 30 fa 7d bc 8b 3e ed 3d
       -0.09561708 0.0097822035 -0.015501544 0.11584195
000080 5a 47 6e 3d 92 6f 4c 3d 30 a5 21 3c 59 39 ec 3b
       0.058173515 0.04991109 0.009866044 0.007208985
000090 56 b7 08 3e 42 d3 69 3d 5d ef bb bd 87 4b 0d 3e
       0.13351187 0.057086237 -0.09176514 0.13798343
0000a0 60 cd e0 bc 42 3e 81 bd 17 70 fa 3d be a0 6b 3d
       -0.02744168 -0.06310703 0.12228411 0.057526343
0000b0 3c f3 84 bd ed ba a4 bd 25 80 0e 3e c8 19 3c 3b
       -0.06491706 -0.08043466 0.13916071 0.002870189
0000c0 28 bb 32 3c 0f fe 85 3d 50 f3 c4 bd 53 75 64 bd
       0.010908879 0.065425985 -0.09616721 -0.05577595
0000d0 80 f7 b7 3a 6c 2b ae 3d 1b e2 aa bd c1 3d 05 3e
       0.0014035553 0.08504376 -0.083439074 0.13011838
0000e0 2c aa 9c bd 8e 9e b1 bb 01 37 1e 3e fe d6 12 3d
       -0.07649645 -0.0054205125 0.1545067 0.035849564
0000f0 9f ca 36 bc f2 87 61 3d 40 09 07 3b bc 71 9c 3d
       -0.011156707 0.05506129 0.0020604879 0.076388806
000100 9a 03 57 3d 91 8e ae 3d 87 d8 c9 bd ac d1 6e bb
       0.05249367 0.08523286 -0.098557524 -0.0036440892
000110 58 9f 95 bd a0 4b 15 3b 64 15 f7 bd a7 30 20 bd
       -0.07305783 0.0022780672 -0.12064627 -0.0391089
000120 2c 8b 97 bc 1c d4 c2 3c 70 6f 43 bc cf 7b e6 3d
       -0.01849898 0.023782782 -0.011928424 0.11254083
000130 37 79 c2 3d 2e 51 20 3d b8 91 83 bd 9a 5e 25 be
       0.09495776 0.03913992 -0.06424278 -0.16149369
000140 2d b5 c7 3d cd 29 95 3d 22 54 30 3d 76 86 e5 bc
       0.097513534 0.072833635 0.043048985 -0.028018218
000150 79 e5 07 3d 66 16 88 3d 99 c0 db bd 5d 9e 9b 3d
       0.033177827 0.06644897 -0.107300945 0.07598565
000160 26 0f 91 3b 4d 3b 91 bd d5 51 a3 bd f1 c6 bc bc
       0.0044268547 -0.07091389 -0.079745926 -0.023044081
000170 07 be 32 bd 34 49 9d bd f4 1a f3 bc 50 1b 9f bd
       -0.043638255 -0.07679978 -0.029675938 -0.07768881
000180 0b 09 ea bc 32 7b 5d 3d aa 8a 5e 3d 23 76 26 bd
       -0.028568765 0.054072566 0.05433146 -0.040640008
000190 23 ea 52 bd 44 f6 38 3b 03 3c 7a bd d4 94 d6 bc
       -0.05149282 0.0028222958 -0.061092388 -0.026194014
0001a0 d2 f7 52 3d 66 0c a9 bd 4c 36 cc 3c 3a 3e bb bd
       0.05150587 -0.08254318 0.024928235 -0.09142728
0001b0 c2 e3 a3 bd 52 04 a9 3c d7 12 6f bd 27 18 c1 bd
       -0.08002426 0.020631943 -0.058367576 -0.09428435
0001c0 b5 f2 b2 bd 80 b1 83 3c c6 b1 21 3e 62 f0 97 bd
       -0.08737699 0.01607585 0.15790471 -0.07418896
0001d0 94 1d 91 3c 36 91 90 bd 3e 35 41 3d 11 0c 91 3d
       0.0177143 -0.07058947 0.047169916 0.070823796
0001e0 1a b9 00 3d 61 ef a0 3d b0 2c 5c bd e4 fd d5 bb
       0.031426527 0.07858158 -0.053753555 -0.0065305103
0001f0 9b 87 a9 3d 37 92 80 3c 10 7e 15 3c 53 a0 31 bd
       0.08277818 0.01569472 0.009124294 -0.043365788
000200 04 49 ea 3c 32 c5 e4 bd 50 1c 62 3c b6 e5 41 bc
       0.02859927 -0.111704245 0.013800696 -0.0118345525
000210 06 79 6a 3d e1 af 9d 3d 58 89 38 bc 58 4f 9e 3b
       0.057244323 0.07699562 -0.011263214 0.004831236
000220 98 b1 76 3c f4 ec e0 3c da 26 5a bd 7e c3 06 3d
       0.01505699 0.027456738 -0.053259708 0.03290128
000230 37 2d cb 3d 38 53 c7 bd e8 2d 42 bd 0a 9a 35 3d
       0.099207334 -0.097326696 -0.04740706 0.044336356
000240 9e 71 19 3e f8 d8 1a bd 9e ba d4 bd e2 93 9b 3d
       0.14984748 -0.037804574 -0.10387157 0.07596566
000250 a0 b7 38 3b c2 8f 9c bd 88 7b a7 bd d9 cf 9f 3d
       0.002818562 -0.07644607 -0.081778586 0.07803316
000260 03 58 a5 3d fe f7 9d 3c 09 58 c4 3d 4c b6 21 bd
       0.080734275 0.019283291 0.09587104 -0.039480492
000270 c6 90 e0 3c 37 ce ac bd e1 25 a1 bd e8 17 db bc
       0.027412783 -0.0843777 -0.07868553 -0.026744798
000280 d8 86 2f 3d 57 d8 19 bd fd 04 3d bd c0 92 10 be
       0.042853206 -0.037559833 -0.046147335 -0.1411848
000290 92 b7 30 3d 47 ab b1 3d e8 d3 3e 3c e1 fd 06 bd
       0.043143816 0.08675247 0.011647202 -0.03295696
0002a0 18 f7 17 bc d0 40 00 3c de 7e e9 3d c0 27 56 3b
       -0.00927522 0.0078279525 0.11401151 0.0032677501
0002b0 aa 93 2d bd 3c be 9f 3d 4d e9 a2 3d 04 a4 db bd
       -0.04237715 0.07799956 0.07954655 -0.10724643
0002c0 ef 76 a5 3d ca 13 10 3c ec 4d e9 3c 6c b9 b3 3d
       0.080793254 0.008793781 0.028479539 0.08775601
0002d0 a9 31 bc 3d 26 5a 8b 3d db 9b aa 3d 10 87 4e bc
       0.091891594 0.06804304 0.08330508 -0.012605444
0002e0 9e af 12 3d 42 eb 55 3d 7e 09 0a 3e ad 47 af bc
       0.035812013 0.052226312 0.13480183 -0.021396482
0002f0 cb ea 59 3c 30 6e 0d 3c 00 9f ea 3a 7f 23 be 3d
       0.013300608 0.008632228 0.0017900169 0.09284114
000300 64 59 b7 bd b8 00 00 bd b0 f6 74 3c 8f f4 86 3d
       -0.08952597 -0.031250685 0.014951393 0.065896146
000310 d3 01 53 bd b3 6a b2 bd 43 6f 38 bd 25 09 84 bd
       -0.05151541 -0.087117575 -0.045027982 -0.06447057
000320 74 e5 ea 3c d3 0d b0 3d e6 33 73 3d 93 9c a2 3d
       0.028673865 0.08596387 0.059375666 0.079400204
000330 d8 01 d1 bc 32 c6 03 3d 20 6b 85 bd c5 35 a1 3d
       -0.025513574 0.032171436 -0.06514573 0.07871584
000340 40 73 7a 3c a0 f4 c8 bd ff 08 84 3d ad 0e 5d bd
       0.015286267 -0.098122835 0.06447028 -0.053969074
000350 9f 34 be bd c2 ad b4 bd 72 33 2c bd f7 df 66 bc
       -0.092873804 -0.08822204 -0.04204125 -0.014091483
000360 e8 db 0e 3c b8 4e bb bd a8 a3 86 bc 70 e6 bc bd
       0.008719422 -0.09145874 -0.01643546 -0.0922364
000370 6a 53 5b 3d 97 d9 bf 3d 92 08 2b 3d 1d 18 b1 3c
       0.053546347 0.09367674 0.04175622 0.021617943
000380 a5 33 9d 3d 42 c3 8b bd cf ef bf bd 64 0b df 3c
       0.07675866 -0.06824352 -0.09371912 0.027227111
000390 ce 45 8a bd b8 26 ae 3d de 0b 1d 3d da ce a5 3b
       -0.067515954 0.08503479 0.038341396 0.005060059
0003a0 3a 02 b2 bd 1b df ab 3d 95 91 b3 3d 1d d3 be 3d
       -0.08691831 0.08392163 0.08768002 0.093176104
0003b0 f0 f8 d8 bd b2 c3 4f 3d aa db 69 bd 7d ae 16 bd
       -0.10594356 0.05072374 -0.057094254 -0.0367875
0003c0 e4 50 cd 3c 47 8d 37 bc 99 0b 7a bd ac b7 18 bd
       0.025062986 -0.011203117 -0.061046217 -0.03728454
0003d0 7c 16 25 3d 3b 47 42 3c 9d 74 24 3d 1c 37 dc 3c
       0.040304646 0.011857803 0.040150274 0.026881747
0003e0 f2 d8 52 3d 4a 59 b5 bd 62 13 6c 3d 24 32 0d bd
       0.051476426 -0.08854921 0.057635672 -0.034471646
0003f0 1d 1e 84 bd 32 e9 78 bc cb 2f 93 3d 39 b3 b4 bd
       -0.06451056 -0.015192317 0.0718685 -0.088232465

network.action_value.2.bias f4 [100]
000000 83 70 92 bc 51 ce 56 bd 26 f1 ad 3c 43 2e 3d 3d
       -0.017875915 -0.052442852 0.021233153 0.046186697
000010 58 fd 69 3d d8 83 5a bd 20 75 ce 3d e5 ac 77 bd
       0.057126373 -0.053348392 0.100809336 -0.06046762
000020 20 0b 47 3d 48 7b 70 3d c9 06 f9 3d cd 45 c9 3d
       0.048594594 0.05871132 0.12159497 0.098277666
000030 ab 63 a5 3c 4d 6e a1 ba 00 ad bb bc 2c 81 ef ba
       0.020189127 -0.0012316197 -0.022909641 -0.0018272749
000040 0a eb ae bb b2 76 c7 3a 2a 78 ac bd 09 76 cf 3d
       -0.0053380774 0.0015217869 -0.08421357 0.10129935
000050 dd 4c 8d 3d 3e af 8c 3d 1e 69 d6 bc 2c d3 ce 3b
       0.06899426 0.06869362 -0.02617317 0.0063117947
000060 c7 15 e0 3d b8 dc ef bc 87 b9 b2 3d 21 f8 bf bb
       0.10941654 -0.029280052 0.08726793 -0.0058584367
000070 80 75 06 bc ad 58 a1 bd 03 cf 5a bd 30 cb a7 3d
       -0.008206725 -0.07878242 -0.053420078 0.08193052
000080 54 53 85 bc 11 2e cb bd da a7 ef bc 77 d2 02 3c
       -0.016275086 -0.09920896 -0.029254843 0.007984749
000090 8b d5 c0 bd f6 e6 5a 3d a5 58 9e 3d 2c 11 97 bc
       -0.0941573 0.053442918 0.07731751 -0.018440805
0000a0 84 2e a3 bd 7f 79 9b 3d 90 ca 68 bd 1d c8 bb 3d
       -0.079678565 0.07591533 -0.056833804 0.09169028
0000b0 f3 bd 4c bd 53 0b 0c bd 05 8a bf bd 53 f8 2a bd
       -0.049985837 -0.034190487 -0.09352497 -0.041740727
0000c0 97 d9 c2 bd b7 8b ba bd 5e 38 aa 3d 57 d3 b9 bd
       -0.09514158 -0.0910868 0.083115324 -0.09073513
0000d0 07 0b dd bc 3d f2 15 3d 25 49 d2 3d f1 49 a5 3d
       -0.026982797 0.03660797 0.102678575 0.08070744
0000e0 e5 27 cd bd 3e b9 68 3d a9 d6 5f bc c5 f7 b4 3c
       -0.10017375 0.056817286 -0.013662019 0.022090802
0000f0 80 82 f2 bb 06 ae 01 3d a0 fc 9a 3d e7 84 cd 3d
       -0.0074008107 0.031660102 0.07567716 0.10035115
000100 fa c7 00 bd cf 42 c0 bd e9 1e f2 bc d2 20 42 3d
       -0.031440713 -0.09387743 -0.029555755 0.04739458
000110 48 7a a7 bc d9 3b 12 bd 11 75 11 3c 51 c1 f3 bd
       -0.02044405 -0.035701606 0.008878008 -0.119021066
000120 8a f8 04 3e 0e 8b ba 3c 0d 30 bd 3d 70 07 f1 3d
       0.12985435 0.022771385 0.092376806 0.11768997
000130 92 07 5a 3d e7 1e 06 3e e8 e8 02 3e bc 8e 3f bd
       0.053229876 0.13097726 0.12784159 -0.04676698
000140 6e e2 20 3d 98 3c 6b bc 22 db ff 3d 3f 11 d6 bd
       0.03927844 -0.014357708 0.12492968 -0.10452508
000150 86 3c 1e ba aa 48 16 bd c9 a0 c2 3c 85 ad 94 bd
       -0.00060362404 -0.03669039 0.023758309 -0.07259659
000160 c2 2b 44 3b 73 f3 43 3d 83 98 6d bd a9 43 c6 3d
       0.0029933308 0.047839593 -0.058006775 0.09680874
000170 fb cf 09 bd 00 7b 5e bc 0b 05 87 3d 0e c8 74 ba
       -0.03364561 -0.01357913 0.06592759 -0.0009337672
000180 73 73 cf 3b e4 e8 ba 3c 68 ad bf bc 96 0d a1 bd
       0.0063309013 0.022816129 -0.023398116 -0.078639194

network.action_value.4.weight f4 [9, 100]
000000 35 87 df bd 45 8c e8 3d 9d 6f 09 bc 07 e5 f5 bd
       -0.109144606 0.11354879 -0.008388427 -0.12006574
000010 32 93 86 3d 3b fe a4 3c 9b 64 e2 bd cc 1f 43 3d
       0.06571044 0.020140758 -0.11054345 0.047637746
000020 9b 41 8c 3d 7b 78 95 bd 66 da de bd ee 9c 7f 3d
       0.06848451 -0.072983705 -0.108815 0.06240552
000030 c1 83 fa 3d cd 4b 83 bd 83 d9 a5 bd 2a 1a dd bd
       0.12232161 -0.06410942 -0.08098128 -0.10796006
000040 c1 ba a0 bd da e5 e2 3d d8 f7 2f 3c 9f af e7 3d
       -0.078481205 0.11078997 0.010740243 0.11312794
000050 c8 68 46 3d 77 d9 18 3d 16 6c b1 bd a6 44 a9 3d
       0.04843977 0.037316766 -0.08663194 0.08265047
000060 c2 51 03 be 38 d3 8b 3c a8 1d ae bd 92 8e 71 3c
       -0.12824157 0.01706849 -0.0850175 0.014743464
000070 69 05 98 3d 82 b0 ad bd 65 6e 1e bd 69 a4 f5 bd
       0.07422907 -0.08480932 -0.0386795 -0.119942494
000080 ca 30 89 bd c3 e2 8e bd 6a f1 18 3e 16 d9 75 3d
       -0.06698759 -0.06976845 0.14935842 0.060021482
000090 ea e5 23 3d 42 cd 95 3d 8b ce af bd 2e b1 a9 3d
       0.040014185 0.073145404 -0.08584317 0.082857475
0000a0 1a 0d 0d 3c d0 af dd 3b b0 de b6 bd 3d c9 fa 3c
       0.008609081 0.0067653432 -0.08929193 0.030613536
0000b0 8c a0 95 3c b8 c0 8e 3d 46 e3 98 3d 49 59 f0 bd
       0.018265031 0.06970352 0.07465224 -0.1173578
0000c0 39 d1 a8 3d e0 ea bc bc 13 f7 a2 3c 77 da 7a bd
       0.08243031 -0.023061216 0.019893205 -0.0612435
0000d0 43 b5 e2 3d 48 cc 95 bd cc 43 0d be 16 69 21 3d
       0.11069729 -0.07314354 -0.13795394 0.03940686
0000e0 5c 71 9c 3d 55 96 87 bd 37 8c 18 3d 5b b9 e2 3d
       0.07638809 -0.066204704 0.037243094 0.1107051
0000f0 3a 3c 3d 3d 40 3f ce bc f9 2b d3 bd 3d 18 0a be
       0.046200015 -0.025176644 -0.103111215 -0.13485809
000100 46 56 6a 3d 60 a7 89 3b f5 c9 f8 bd 0e 7b 3d 3d
       0.057211183 0.004200861 -0.12147895 0.046259932
000110 dd a1 b1 3d 47 15 81 bd 41 e7 17 3e 4e df ae 3d
       0.08673451 -0.063028865 0.1483431 0.08538686
000120 48 e0 b2 bd ee 5d f0 3d 16 c2 3f 3d 7b 51 df bd
       -0.087341845 0.11736666 0.046815954 -0.10904213
000130 7a a7 a3 3d 80 49 03 be 02 ac 0e be 07 4a e8 3a
       0.07990928 -0.12821007 -0.13932803 0.0017722257
000140 fc a8 d4 bd 13 c5 bb 3d d2 92 06 be ee 91 11 3e
       -0.10383794 0.09168448 -0.13141945 0.14215824
000150 66 d5 b5 bd 52 64 95 bd f6 a3 1f be 49 90 84 3d
       -0.08878593 -0.07294525 -0.1558989 0.06472833
000160 69 95 40 3d 87 ba ff bd 99 13 cc 3d a8 7d 33 3c
       0.04701749 -0.12486749 0.099646755 0.010955252
000170 f9 d5 06 be 57 92 50 bd a0 c5 ae 3b 98 8e 81 3d
       -0.13167562 -0.05092081 0.0053336173 0.06326026
000180 c6 dc f6 3c 1d a6 19 be 49 9b b3 3d 34 51 e5 bc
       0.03013457 -0.15004773 0.08769853 -0.027992822
000190 4b 49 03 3e 75 ef cf bd 13 3a 43 bd 89 4a 8c bd
       0.12820928 -0.10153095 -0.047662806 -0.06850154
0001a0 ca 7a d1 bd 19 f4 02 be c7 ef b2 3d 98 31 26 3d
       -0.10228498 -0.12788428 0.0873714 0.04057464
0001b0 9e c3 75 3d 6b e2 9d bc 17 18 81 bd 7a ba 34 bd
       0.06000101 -0.019273004 -0.06303423 -0.04412315
0001c0 60 d3 19 3d 9b c1 5d 3d 7b fc 9a bd 32 a3 2c 3d
       0.0375551 0.054139715 -0.07567688 0.042147823
0001d0 03 e2 a5 bc 5a dc 8e bd d9 69 a0 3d f0 92 01 be
       -0.020249372 -0.069756225 0.07832689 -0.12653708
0001e0 23 93 8e bd a0 49 86 3d ef d2 10 bc 9a 43 b7 3d
       -0.06961658 0.065570116 -0.008839353 0.08948441
0001f0 1d a2 08 3e d8 ba 52 3c b6 de ca 3d 3b c8 bb bc
       0.13343091 0.01286193 0.0990576 -0.022922626
000200 50 30 41 3c a1 52 b5 3d a2 77 48 3d 37 b1 c2 3d
       0.011791304 0.08853651 0.048942216 0.09506457
000210 d0 46 2f bd 07 a9 a9 3c 7a 0c 04 be 39 7d 51 bc
       -0.04279214 0.020710481 -0.12895384 -0.012786203
000220 b0 29 4d 3c 4c 75 60 3c d4 0e ae 3c 21 93 d8 bd
       0.012522146 0.013699841 0.021247305 -0.105749376
000230 cf 39 ad bd ef 2f bf 3d 94 2f 81 bc 0f 75 02 3c
       -0.08458292 0.093353145 -0.015769757 0.007962479
000240 e6 7e 5b 3d 1c 24 97 bd d1 4c 00 be e3 6d 74 bb
       0.053587817 -0.07379934 -0.12529303 -0.0037296943
000250 53 7c ae bb d0 ef d0 3b 7d f4 77 3c 5f cd b1 bd
       -0.005324879 0.006376244 0.015133974 -0.086817496
000260 5d de 98 3d 12 9f 86 bc 91 01 2d 3b 68 c2 48 3c
       0.074642874 -0.016433273 0.0026398639 0.012253381
000270 14 30 53 bc 50 61 53 bd d9 83 33 bc ab f3 96 3c
       -0.012889881 -0.051606476 -0.010956728 0.018426737
000280 54 17 ea 3c fe ba 35 3d 28 bc 04 3d 0f af 92 3b
       0.028575577 0.044367783 0.032406002 0.004476435
000290 49 93 a6 3d 6a 1b b0 bd 42 62 02 3d 50 cb ce bb
       0.08133561 -0.08598979 0.031831987 -0.006310858
0002a0 a7 d0 be 3d 2d b4 b3 3d b8 56 36 3c c0 07 0b bb
       0.09317141 0.087746 0.011129074 -0.0021214336
0002b0 20 5f 68 bc 97 05 b3 bc c0 72 1a bc 88 82 21 bd
       -0.014182836 -0.021853251 -0.009426773 -0.039431125
0002c0 e4 a2 ee 3c ab eb d3 3a b3 f7 e7 3d 95 ed 55 3a
       0.029130407 0.0016168257 0.11326542 0.00081607077
0002d0 9b 8f 8b 3d 18 4e 26 3c f3 00 a3 3d cc cc 98 3c
       0.068145 0.010150455 0.079591654 0.018652342
0002e0 24 26 01 bc 62 0c e3 3b 48 58 86 3d 25 4a ad bd
       -0.007882629 0.0069289664 0.06559807 -0.084614076
0002f0 77 31 b3 bd b0 6a 8a 3d e2 02 07 3d e8 49 9c bc
       -0.08749669 0.0675863 0.032961734 -0.01907821
000300 b2 89 a2 3d 42 bd a1 bd 27 a2 bf bd 45 4f 8a bd
       0.079364195 -0.07897426 -0.093571 -0.06753401
000310 5b 39 61 bd fa 63 8c 3d 50 05 20 bc a6 e8 50 3d
       -0.05498634 0.068550065 -0.009766892 0.05100312
000320 09 19 d6 3d bc 07 0f bd 8e dc 86 bd fa 97 31 bd
       0.10453994 -0.034919485 -0.06585036 -0.043357827
000330 60 03 23 be c1 19 68 bd 67 17 93 3b b4 e8 a6 3d
       -0.15919256 -0.056665186 0.0044888738 0.08149853
000340 0d 4d a5 bb 70 06 71 bd 71 dd 0f 3e fa 7b 76 bd
       -0.0050445856 -0.05884403 0.14049317 -0.060176827
000350 30 cf 76 bd 61 ec d6 3d 06 a9 10 bd b1 97 f4 3a
       -0.060256183 0.104943044 -0.035317443 0.001866093
000360 32 8e f1 3c be a4 db bd 30 04 24 3c aa 20 8b 3c
       0.02948675 -0.107247815 0.010010764 0.016983349
000370 65 ba fc bc ce 51 e5 3a 56 f9 20 3e eb 5c 50 bd
       -0.030850599 0.0017495693 0.15720114 -0.050869863
000380 71 44 24 3e e3 2a 93 3d 49 83 01 3d 3d 3a 17 3d
       0.16041733 0.07185914 0.031619344 0.036920775
000390 d4 a5 c6 bc 25 ce c7 3d 48 b9 b2 bd b6 fd 28 bd
       -0.024248995 0.09756116 -0.08726746 -0.041257583
0003a0 09 6b bb 3d bd 3e 09 3e 57 9b 17 bd 39 bf c8 bd
       0.09151275 0.13402839 -0.037013378 -0.09802098
0003b0 e0 a4 85 3b c2 fe 80 bd c2 2a 5e 3d 32 c2 45 bc
       0.0040784925 -0.06298591 0.054239996 -0.012070226
0003c0 50 bd 87 bc 40 c2 64 bd 45 c7 c9 bd 60 85 32 bb
       -0.016569763 -0.055849314 -0.09852461 -0.0027240142
0003d0 15 b9 9b bd a3 4e 28 bd b7 6c f3 bc 75 0f 33 3b
       -0.07603661 -0.04109062 -0.029714925 0.0027322446
0003e0 dd 41 78 bd a4 94 fe 3c 07 41 ed 3d 7f 27 82 3d
       -0.060609687 0.031076737 0.115846686 0.063551895
0003f0 30 c6 98 bd 30 51 c5 3d 5f 0a 51 bc 53 da b0 3d
       -0.07459676 0.09634626 -0.01275882 0.08635392

network.action_value.4.bias f4 [9]
000000 fe b6 d0 ba 78 db f9 3c 8a 3f 78 3d 97 22 74 3d
       -0.0015923677 0.030500159 0.06060747 0.0596033
000010 66 cb 10 3e 6b 8a f1 bd b3 af a7 3d 26 eb b4 3d
       0.1414009 -0.11793979 0.08187809 0.088339135
000020 41 26 63 bd
       -0.055456404
