CS 260R - Reinforcement Learning/assignment2/test_trainer.pt (torch, 45946 bytes, 6 tensors)

action_value.0.weight f4 [100, 4]
-0.26488864 0.36024588 0.37091166 -0.041958928 0.15708435 -0.44772202 -0.4660198 0.44052935
-0.19160122 -0.014250994 0.31844807 0.28179437 0.48163444 -0.015156627 -0.038695753 0.42148894
-0.0692178 0.19254899 -0.14886063 -0.046568155 0.4065073 -0.3734616 0.45408756 -0.32246137
-0.47537917 0.37063938 0.11819869 -0.35002172 -0.213359 -0.00934422 0.43213415 -0.034257114
-0.2499733 0.058007836 -0.28099996 0.47962296 -0.44385856 0.018709362 -0.3800786 -0.2699564
0.35551238 -0.03279245 -0.027727783 -0.48523307 -0.2341938 -0.1759373 0.013405919 -0.40469927
-0.41076142 -0.26257938 0.14030153 -0.10907644 -0.06319469 0.19696897 0.11929059 -0.4767626
0.16349679 0.17358387 0.35528457 0.059610307 -0.1147117 0.27253062 0.470433 -0.43279916
0.26037234 -0.2299962 0.42391115 -0.37066096 -0.0005559921 0.29298812 -0.446437 -0.15571564
-0.30945116 0.031463325 -0.05026889 -0.12497002 0.012996376 -0.15654743 -0.3909781 0.39666903
0.26409042 0.100090325 -0.0957436 0.40610743 0.030760467 0.31059587 0.057775915 -0.290318
-0.3364281 0.49245518 -0.411151 -0.30891222 -0.23936778 -0.49503464 0.09793365 0.17064095
-0.31560946 -0.17179954 -0.39585298 0.07464486 -0.05169767 0.40898198 0.3369835 0.33414727
-0.38129961 0.14371818 -0.4002236 0.4903807 -0.49268037 0.45278758 0.18343574 0.4735576
0.38395762 0.24866122 -0.41476685 0.02053535 0.14771193 0.21507537 -0.13205874 0.29115927
0.48081893 0.043734014 -0.4822018 -0.42137152 -0.46098262 -0.46591038 0.24008894 0.17233849
0.1699894 0.40970707 -0.38826364 -0.43152583 0.08893162 -0.35949892 0.27204555 -0.05294639
-0.262087 -0.2326563 -0.36670768 -0.05378163 0.313478 0.29021943 -0.3129573 0.17538685
0.46069652 -0.029543757 -0.13394445 0.17366171 -0.43961668 0.4534464 0.3309021 -0.21615261
0.43914974 -0.28776252 0.44438893 0.33345115 -0.20488226 -0.29965937 -0.3195427 -0.48024803
-0.22039151 -0.469873 -0.098994136 0.0034290552 -0.1141423 0.09241396 -0.0001745224 -0.43609625
0.21089077 0.49930263 -0.18077838 0.20932442 -0.112451434 0.22678745 -0.39619696 -0.06962776
-0.06459451 0.49582988 0.059403896 0.044875145 0.17746973 0.2160492 -0.10763216 0.47789282
0.29571903 -0.41591614 -0.1421727 0.16363573 0.20187885 -0.48126304 0.06804204 -0.01583147
-0.026943505 -0.34306902 -0.31143212 0.24756736 0.3425988 0.11706573 -0.032573044 0.04690236
-0.27082604 -0.15582281 -0.20587415 -0.2370317 -0.33255184 0.22652596 0.05739343 0.47802973
-0.26263356 -0.28322333 -0.36473805 0.35652143 -0.1919623 0.1321271 -0.46156126 -0.48897648
-0.49926198 0.38758266 -0.3552956 0.26197278 0.1463542 0.29182327 0.37064284 0.05770874
-0.43108612 -0.21962225 0.38880026 0.15000117 -0.07601178 0.46235782 0.16284394 0.14794976
0.17258549 0.22715354 0.39252162 0.26007158 0.09876311 0.25665885 0.421282 -0.1734454
0.117548466 0.0038939118 -0.22104102 0.060107768 0.48398346 0.32732278 0.111403346 -0.2718773
0.075030446 0.37997454 -0.21656239 -0.23070538 -0.21199232 0.3799315 0.18146086 -0.47616923
00000000: 7c9f 87be 2672 b83e 22e8 bd3e 20dd 2bbd
00000010: b8da 203e d23b e5be 269a eebe 108d e13e
00000020: 1c33 44be 007d 69bc a00b a33e 5a47 903e
00000030: ca98 f63e 8053 78bc 707f 1ebd 66cd d73e
00000040: 10c2 8dbd 902b 453e ec6e 18be 40be 3ebd
00000050: ba21 d03e 5c36 bfbe 2a7e e83e a819 a5be
00000060: e664 f3be 72c4 bd3e 2812 f23d 0c36 b3be
00000070: c87a 5abe 8018 19bc b040 dd3e 3051 0cbd
00000080: 00f9 7fbe a099 6d3d 3adf 8fbe 2491 f53e
00000090: 6e41 e3be 6044 993c aa99 c2be ba37 8abe
000000a0: b805 b63e 6051 06bd 6025 e3bc 7870 f8be
000000b0: 80d0 6fbe e828 34be 80a4 5b3c be34 cfbe
000000c0: 524f d2be ce70 86be 34ab 0f3e 7863 dfbd
000000d0: 386c 81bd 3cb2 493e a04e f43d 3a1a f4be
000000e0: b46b 273e f8bf 313e dce7 b53e f029 743d
000000f0: f8ed eabd 2289 8b3e 98dc f03e da97 ddbe
00000100: 864f 853e 2084 6bbe e20a d93e 46c7 bdbe
00000110: 00c0 11ba 8a02 963e 6493 e4be ec73 1fbe
00000120: 6270 9ebe b0df 003d c0e6 4dbd 48f0 ffbd
00000130: c0ee 543c f84d 20be 482e c8be 3418 cb3e
00000140: dc36 873e 28fc cc3d 3815 c4bd 50ed cf3e
00000150: 60fd fb3c 6c06 9f3e 70a6 6c3d 90a4 94be
00000160: 4e40 acbe 1623 fc3e 6282 d2be be29 9ebe
00000170: d41c 75be 2e75 fdbe 7091 c83d 80bc 2e3e
00000180: 9097 a1be 38ec 2fbe 3ead cabe 68df 983d
00000190: f0c0 53bd 1666 d13e 1a89 ac3e 5a15 ab3e
000001a0: b439 c3be dc2a 133e 1cea ccbe 2e13 fb3e
000001b0: 9a40 fcbe c6d3 e73e 94d6 3b3e 2476 f23e
000001c0: 1896 c43e 0ca1 7e3e 525c d4be c039 a83c
000001d0: cc41 173e b83c 5c3e 683a 07be d412 953e
000001e0: e62d f63e 7022 333d 28e3 f6be 02be d7be
000001f0: ea05 ecbe ce8b eebe e0d9 753e 8079 303e
00000200: b411 2e3e 20c5 d13e 7eca c6be f4f0 dcbe
00000210: c821 b63d 3e10 b8be 8e49 8b3e 50de 58bd
00000220: 4430 86be 743d 6ebe 1cc1 bbbe 204a 5cbd
00000230: 3080 a03e a497 943e f03b a0be 9c98 333e
00000240: 6ae0 eb3e c005 f2bc bc28 09be 60d4 313e
00000250: 7015 e1be 202a e83e 006c a93e 1c57 5dbe
00000260: 3cd8 e03e 9c55 93be f286 e33e 1cba aa3e
00000270: a8cc 51be f46c 99be 1a9b a3be 12e3 f5be
00000280: 50ae 61be 3293 f0be 70bd cabd 00ba 603b
00000290: 70c3 e9bd 8843 bd3d 0000 37b9 0248 dfbe
000002a0: c0f3 573e 98a4 ff3e f81d 39be 2459 563e
000002b0: f04c e6bd f83a 683e 54da cabe 0099 8ebd
000002c0: 204a 84bd 6add fd3e 8051 733d 00cf 373d
000002d0: a0ba 353e 003c 5d3e 406e dcbd 5eae f43e
000002e0: 7c68 973e f6f2 d4be b895 11be 2090 273e
000002f0: 54b9 4e3e 1c68 f6be a059 8b3d 00b1 81bc
00000300: a0b8 dcbc bea6 afbe 0874 9fbe 4c82 7d3e
00000310: 1c69 af3e 28c0 ef3d 506b 05bd b01c 403d
00000320: b6a9 8abe 0490 1fbe acd0 52be 70b8 72be
00000330: 3c44 aabe 6cf6 673e 6015 6b3d 50c0 f43e
00000340: e877 86be a602 91be f2be babe fa89 b63e
00000350: c491 44be 544c 073e c251 ecbe 205b fabe
00000360: 449f ffbe 3c71 c63e 4ee9 b5be 4c21 863e
00000370: e0dd 153e dc69 953e e6c4 bd3e 0060 6c3d
00000380: 52b7 dcbe a8e4 60be d410 c73e e899 193e
00000390: 10ac 9bbd 2aba ec3e 90c0 263e 2480 173e
000003a0: 40ba 303e f09a 683e 98f8 c83e 1a28 853e
000003b0: 5044 ca3d ca68 833e 46b2 d73e ac9b 31be
000003c0: 40bd f03d 0031 7f3b 9458 62be 9033 763d
000003d0: aecc f73e da96 a73e 7027 e43d 8033 8bbe
000003e0: 90a9 993d 068c c23e 88c2 5dbe 083e 6cbe
000003f0: 8414 59be 6286 c23e e0d0 393e 74cc f3be

action_value.0.bias f4 [100]
0.122012794 -0.40784782 -0.2872327 0.083539724 -0.3620779 -0.2828185 -0.13943219 -0.0854789
-0.3854254 -0.12673253 0.27935803 -0.25772172 0.0030921698 0.4992773 0.44739616 0.31307733
0.47188658 -0.10305226 -0.1917581 -0.19680381 -0.08096647 -0.0020982623 -0.12712538 0.4503981
0.042918146 -0.38597584 0.35023677 0.22122651 -0.15526307 -0.036983967 0.3519786 -0.32903415
-0.2841375 0.3188849 0.33287323 0.32783532 -0.26151496 -0.22445357 0.4024393 0.060801566
0.35889226 0.23210132 0.32002646 -0.018740952 -0.335622 -0.09308332 -0.23378307 -0.09239149
0.019025981 -0.33533388 -0.43294466 0.15970975 0.37339842 -0.38832682 -0.45537 -0.24667263
0.20830446 0.27122402 0.21019453 -0.14043915 0.47757226 -0.40466636 -0.4745571 0.34536314
0.31424296 0.1132943 -0.13269937 -0.04494244 -0.43167776 0.2864352 0.095175326 0.36839157
0.20825154 0.19787389 -0.080043316 0.43858534 -0.33307797 -0.13369405 -0.4599198 0.20382786
0.031330645 0.31058073 -0.23873395 0.03609115 0.0069376826 0.38995725 0.23496884 0.015450001
0.019815803 0.1997096 0.3879993 -0.47587955 -0.07399231 0.087111175 0.33565825 0.47477984
0.45540905 0.27632213 0.25776213 -0.36611086
00000000: d8e1 f93d 6ed1 d0be 2a10 93be e016 ab3d
00000010: 4662 b9be 96cd 90be 50c7 0ebe 900f afbd
00000020: 7a56 c5be 2cc6 01be 0408 8f3e 1af4 83be
00000030: 00a6 4a3b 46a1 ff3e 1c11 e53e ac4b a03e
00000040: 1e9b f13e 100d d3bd 3c5c 44be f086 49be
00000050: c0d1 a5bd 0083 09bb 282d 02be 949a e63e
00000060: f0ca 2f3d a09e c5be 3c52 b33e 3489 623e
00000070: 48fd 1ebe 807c 17bd 8a36 b43e 2a77 a8be
00000080: 787a 91be e244 a33e 5c6e aa3e 08da a73e
00000090: 4ae5 85be 28d7 65be 860c ce3e 100b 793d
000000a0: bac0 b73e f8ab 6d3e 82da a33e a086 99bc
000000b0: a6d6 abbe 78a2 bebd d464 6fbe c037 bdbd
000000c0: 60dc 9b3c e2b0 abbe ecaa ddbe f48a 233e
000000d0: 142e bf3e c6d2 c6be 4226 e9be c097 7cbe
000000e0: c44d 553e e0dd 8a3e 3c3d 573e 48cf 0fbe
000000f0: 5a84 f43e 6e30 cfbe 26f9 f2be 70d3 b03e
00000100: 74e4 a03e d806 e83d 58e2 07be 9015 38bd
00000110: de04 ddbe a2a7 923e 48eb c23d d29d bc3e
00000120: e43f 553e 749f 4a3e c0ed a3bd 428e e03e
00000130: 3289 aabe 18e7 08be 9c7a ebbe 40b8 503e
00000140: 9054 003d 7004 9f3e ac76 74be 50d4 133d
00000150: 8055 e33b 7aa8 c73e ac9b 703e 0022 7d3c
00000160: c054 a23c ac80 4c3e d8a7 c63e 7ca6 f3be
00000170: 4889 97bd 5867 b23d 66db ab3e 5816 f33e
00000180: 602b e93e 187a 8d3e 66f9 833e e272 bbbe

action_value.2.weight f4 [100, 100]
0.025774844 -0.064775094 0.07707127 -0.03863454 0.022588074 0.06646707 -0.07755114 0.009788476
-0.019109108 -0.03228925 -0.058787834 -0.006449342 -0.08145459 0.02934762 -0.07672517 -0.06076206
-0.0834115 -0.01678449 -0.0019541234 0.07679076 0.07319523 0.020636186 -0.030572414 -0.09331428
-0.006894648 0.0769838 0.023706242 0.0756165 0.012075461 -0.007851884 0.071115814 -0.03763659
-0.008482099 -0.09141816 0.06574888 -0.077776685 -0.0018410906 0.06601096 0.076960914 -0.09347651
-0.09659214 -0.019990645 0.014195345 -0.053673245 -0.07450013 -0.077480555 0.0005515814 0.05874086
0.08099527 0.075805925 0.023307875 0.071784295 -0.004965976 0.005524181 0.011993095 -0.02725508
-0.091694616 -0.01995375 0.03589692 0.063846596 -0.08997544 -0.041973926 0.02127929 -0.02580905
0.032492585 0.05503104 0.019246757 0.0840968 0.08359621 0.080244385 0.06332541 -0.08823812
-0.08638871 -0.04006047 -0.09860902 0.06548942 0.06715638 -0.0772879 -0.05021311 -0.055921625
0.0896944 -0.088074066 0.028929465 0.018890955 -0.042707767 0.0033908337 -0.04309838 -0.023727022
0.036948897 0.09990496 0.07846748 0.024178006 -0.074462354 0.06984318 -0.08712474 0.05350522
0.051674522 -0.08078067 -0.051705208 0.06602714 0.071582876 -0.08517847 0.024623215 -0.057669114
0.082807 -0.09294454 -0.09941355 -0.09009152 0.062411077 0.007184826 0.09789949 0.04230205
0.067333095 0.046506293 0.002162002 -0.0954582 0.045077987 -0.078805625 -0.047208607 -0.0273728
0.048512645 0.04164856 0.034553595 -0.044370808 -0.061466552 -0.033785306 -0.0771959 0.07967394
-0.08621775 -0.013351023 -0.018667303 0.06994743 -0.031094193 0.018457174 0.09746147 -0.07134628
0.07905202 0.09683732 -0.029897138 -0.0898801 0.049568452 0.030927606 -0.049734283 0.05634796
-0.08886719 -0.0803563 -0.05654793 0.07866063 0.06953377 0.050272755 0.046839617 -0.09737469
0.004697785 0.06771713 0.010397628 -0.029988304 0.0017301589 0.06675472 0.07479782 -0.029357597
-0.03596668 0.050980724 -0.014172398 -0.058574237 0.00636442 0.0071548074 -0.05041505 -0.025072053
-0.004918501 0.098632656 -0.0673839 0.0728881 -0.065163404 0.042961188 0.06253817 -0.027519837
0.024124458 0.025133125 0.091903515 -0.024835512 -0.039179575 0.06260688 -0.058158565 0.03555701
-0.08291106 0.035622977 -0.071591735 -0.027200356 -0.08060382 -0.08801686 0.085740276 -0.094827175
-0.098341584 0.06373004 0.03408528 -0.001047492 0.025992282 0.009490594 -0.07284193 0.0458949
0.0827821 0.042002045 0.08065372 -0.054761447 -0.036550425 0.013819739 -0.036112584 -0.053175356
-0.09018971 -0.084920004 -0.09731078 0.05722218 -0.09517223 0.052325733 -0.071051046 0.05463507
0.009237871 0.00023452193 -0.09218784 0.044610806 0.088190176 0.019941553 0.026897408 -0.021251276
0.0113411695 -0.073871635 -0.013516046 -0.07524766 0.0018103942 -0.032303132 0.0482494 0.056602918
0.0658204 0.022743285 -0.013504483 0.036004134 -0.08753782 0.09394414 -0.036095515 -0.091322
0.017343283 -0.0837512 -0.015219703 -0.011304006 -0.059279706 -0.046507027 0.045231797 0.06624817
0.09207285 -0.010123715 -0.09000432 0.05966615 0.094605915 -0.0053034574 -0.0828554 -0.0050847977
00000000: c425 d33c cea8 84bd 8bd7 9d3d 403f 1ebd
00000010: a00a b93c e31f 883d 22d3 9ebd d85f 203c
00000020: b48a 9cbc bc41 04bd 83cb 70bd 0055 d3bb
00000030: aad1 a6bd 6c6a f03c 1622 9dbd a3e1 78bd
00000040: a6d3 aabd a07f 89bc c010 00bb 7944 9d3d
00000050: 61e7 953d 380d a93c 0073 fabc 8f1b bfbd
00000060: 80ec e1bb afa9 9d3d 9833 c23c d3dc 9a3d
00000070: 28d8 453c 30a5 00bc 2ba5 913d d328 1abd
00000080: 80f8 0abc 7239 bbbd 59a7 863d 6249 9fbd
00000090: c050 f1ba c130 873d af9d 9d3d 9d70 bfbd
000000a0: 1ad2 c5bd 6cc3 a3bc 9893 683c 7ad8 5bbd
000000b0: 8693 98bd 20ae 9ebd 0098 103a 429a 703d
000000c0: d9e0 a53d 2340 9b3d 28f0 be3c a503 933d
000000d0: a0b9 a2bb 3004 b53b b07e 443c 0c46 dfbc
000000e0: 63ca bbbd 0c76 a3bc a608 133d 01c2 823d
000000f0: 0b45 b8bd daec 2bbd e851 ae3c 806d d3bc
00000100: f216 053d 3a68 613d 60ab 9d3c f13a ac3d
00000110: 7d34 ab3d 2b57 a43d c1b0 813d 30b6 b4bd
00000120: 90ec b0bd 7316 24bd 87f3 c9bd 511f 863d
00000130: 4989 893d 1e49 9ebd 43ac 4dbd 130e 65bd
00000140: b3b1 b73d 2d60 b4bd 7cfd ec3c 34c1 9a3c
00000150: 57ee 2ebd c038 5e3b ed87 30bd 2c5f c2bc
00000160: ba57 173d f99a cc3d 8fb3 a03d f410 c63c
00000170: b87f 98bd f109 8f3d 756e b2bd 4a28 5b3d
00000180: aaa8 533d 5670 a5bd d7c8 53bd 3d39 873d
00000190: 0b9a 923d 0d72 aebd a0b6 c93c 7336 6cbd
000001a0: b796 a93d b559 bebd 5599 cbbd e781 b8bd
000001b0: c2a2 7f3d b06e eb3b 877f c83d ea44 2d3d
000001c0: efe5 893d 627d 3e3d 60b0 0d3b 977f c3bd
000001d0: b2a3 383d d864 a1bd d05d 41bd ec3c e0bc
000001e0: 32b5 463d ae97 2a3d 1288 0d3d 2abe 35bd
000001f0: 5ac4 7bbd 7662 0abd e218 9ebd 172c a33d
00000200: ef92 b0bd 40be 5abc 2cec 98bc 9940 8f3d
00000210: 40b9 febc 8033 973c e199 c73d 001e 92bd
00000220: 07e6 a13d a552 c63d d8ea f4bc 0f13 b8bd
00000230: 4a08 4b3d e45b fd3c 2db6 4bbd 1ecd 663d
00000240: 0000 b6bd d891 a4bd cd9e 67bd d318 a13d
00000250: b967 8e3d ceea 4d3d e6da 3f3d 626c c7bd
00000260: e0ef 993b 47af 8a3d d05a 2a3c 08aa f5bc
00000270: 80c6 e23a b3b6 883d 992f 993d 587f f0bc
00000280: cc51 13bd 2ad1 503d 5833 68bc 8aeb 6fbd
00000290: a08c d03b e072 ea3b 0380 4ebd e863 cdbc
000002a0: 602b a1bb ebff c93d 9200 8abd 5b46 953d
000002b0: 6474 85bd 12f8 2f3d 0314 803d 4871 e1bc
000002c0: a8a0 c53c fce3 cd3c e937 bc3d d873 cbbc
000002d0: c37a 20bd 0938 803d ad37 6ebd 3aa4 113d
000002e0: 46cd a9bd 66e9 113d b09e 92bd 48d3 debc
000002f0: 9e13 a5bd 2f42 b4bd 9998 af3d c034 c2bd
00000300: 5067 c9bd e584 823d 029d 0b3d 004c 89ba
00000310: c4ed d43c 707e 1b3c 262e 95bd 4afc 3b3d
00000320: a989 a93d 560a 2c3d c72d a53d 8a4d 60bd
00000330: e6b5 15bd 306c 623c caea 13bd 67ce 59bd
00000340: 62b5 b8bd 8aea adbd e04a c7bd ce61 6a3d
00000350: a8e9 c2bd 8253 563d 3683 91bd 06c9 5f3d
00000360: 705a 173c 00ea 7539 facc bcbd d2b9 363d
00000370: 0d9d b43d 785c a33c f457 dc3c 2817 aebc
00000380: 50d0 393c 034a 97bd 6872 5dbc 721b 9abd
00000390: c04a ed3a 4a50 04bd 2aa1 453d 76d8 673d
000003a0: d9cc 863d 2050 ba3c e841 5dbc 1279 133d
000003b0: 0747 b3bd c965 c03d e4d8 13bd 0707 bbbd
000003c0: 8013 8e3c c085 abbd 105c 79bc 7034 39bc
000003d0: 47cf 72bd 277e 3ebd fa44 393d 1fad 873d
000003e0: b190 bc3d f0dd 25bc 2f54 b8bd 7e64 743d
000003f0: bfc0 c13d a0c8 adbb 18b0 a9bd 609e a6bb

action_value.2.bias f4 [100]
0.014911532 -0.089305 0.091622375 -0.07241286 0.0063410774 0.089951225 0.059770457 0.05208058
-0.08500358 0.04795406 -0.09174416 -0.06109686 0.026940472 0.066480614 -0.021414362 0.042117007
-0.05538733 0.08697615 0.0843127 0.09745637 0.07188568 -0.050176527 0.079799704 0.0096706
-0.06575571 0.07825697 -0.088273756 0.006109856 0.042940147 0.08743178 -0.024185017 -0.04109479
-0.041940667 0.020368598 0.024530947 0.019671462 0.041084595 0.0053580776 -0.024222948 -0.099351756
-0.055755902 0.022736862 0.034152634 -0.020838939 0.0021377206 -0.048307 -0.06266026 0.0055978894
0.046993144 -0.057026293 -0.08984991 -0.08908706 0.08963906 -0.09777736 0.01817032 0.040052377
0.047100373 0.051699735 -0.010999717 0.00058829784 0.06902581 0.08769692 -0.016130462 0.01722379
-0.071132064 -0.05287808 -0.067962885 0.063587315 0.028768755 -0.021003745 -0.09371436 0.03913083
-0.06477237 -0.0075740814 0.044520237 0.044124864 -0.044020545 -0.028345428 0.07663687 -0.018024564
-0.08423133 -0.03246914 0.04837466 0.0522803 0.04442922 0.08154807 0.051810868 0.027059011
0.062321596 0.018611506 0.04888799 -0.068654045 -0.06943743 0.013646223 -0.041434407 0.08825386
-0.037888158 -0.051788844 0.08380713 0.027973928
00000000: 804f 743c 8ae5 b6bd 83a4 bb3d 324d 94bd
00000010: d0c8 cf3b 5938 b83d ded1 743d 7252 553d
00000020: 5b16 aebd 7a6b 443d 5de4 bbbd b340 7abd
00000030: 44b2 dc3c fd26 883d 2c6d afbc e282 2c3d
00000040: d3dd 62bd 8d20 b23d 23ac ac3d 3597 c73d
00000050: cd38 933d e785 4dbd 076e a33d 7071 1e3c
00000060: eeaa 86bd 3145 a03d dfc8 b4bd 3035 c83b
00000070: 02e2 2f3d 6f0f b33d a81f c6bc 0353 28bd
00000080: fac9 2bbd 0cdc a63c 20f5 c83c 0c26 a13c
00000090: 5248 283d d092 af3b 346f c6bc ef78 cbbd
000000a0: 4d60 64bd a842 ba3c a2e3 0b3d 6cb6 aabc
000000b0: 0019 0c3b 90dd 45bd 0654 80bd 806e b73b
000000c0: e27b 403d 6794 69bd 3b03 b8bd 4773 b6bd
000000d0: af94 b73d 7f3f c8bd ecd9 943c f60d 243d
000000e0: 52ec 403d 1ac3 533d 2838 34bc 0038 1a3a
000000f0: 675d 8d3d 719a b33d 0824 84bc e818 8d3c
00000100: b0ad 91bd b096 58bd 2030 8bbd 113a 823d
00000110: 74ac eb3c 0c10 acbc 50ed bfbd a647 203d
00000120: 60a7 84bd 0030 f8bb da5a 363d 46bc 343d
00000130: e34e 34bd ac34 e8bc cbf3 9c3d 40a8 93bc
00000140: 7a81 acbd 5cfe 04bd 8224 463d de23 563d
00000150: 6afb 353d ad02 a73d a237 543d dcaa dd3c
00000160: ee44 7f3d 2877 983c c63e 483d 7e9a 8cbd
00000170: 3635 8ebd 6894 5f3c 20b7 29bd 71be b43d
00000180: 9d30 1bbd 8a20 54bd 13a3 ab3d 9429 e53c

action_value.4.weight f4 [2, 100]
-0.09043797 -0.040871084 -0.0029658899 -0.06861782 -0.07068671 0.0663052 -0.05279553 0.08434614
-0.02609799 0.046587743 0.078368835 0.07018722 -0.06522642 -0.09640117 -0.0799496 0.07242712
-0.073063396 0.06987839 -0.06595002 0.09984023 0.03738088 0.027767934 -0.064588055 0.069316484
0.07796576 0.054162838 0.030137844 0.0984349 -0.011328265 0.027726837 0.047386058 -0.03825898
-0.021549761 0.016701378 0.035922118 0.009378031 -0.057856467 -0.012045011 -0.026197448 0.040490337
-0.08129062 -0.06925106 0.04345163 0.0846229 0.030196704 -0.04042541 0.052486427 0.06338092
-0.042182814 0.069261424 0.01025705 -0.055483866 -0.042622626 0.04329937 0.09459574 -0.0902622
-0.03837743 -0.07843348 0.018771544 0.090317555 -0.058763947 0.09496186 -0.0031103939 0.071212806
-0.026926115 -0.043115664 0.07519931 0.03672511 0.030280761 -0.046940327 -0.011608519 0.019732952
0.017073229 0.07639005 -0.07806325 -0.02362597 0.022242345 -0.088861786 -0.08077325 0.08552679
-0.010975882 -0.0898518 0.09780925 -0.046996485 -0.020652905 -0.057924666 0.05007858 0.0021312386
0.029381402 0.005519487 0.08696104 0.061243616 -0.036894403 -0.0072680265 0.024250604 -0.030483462
0.020569742 0.078601904 -0.0414073 0.037722103 -0.09806216 0.055798225 -0.07551856 0.021441355
-0.03548781 0.023279466 0.080605604 -0.08581004 -0.023503974 0.0031688362 -0.02734439 0.015010096
0.067584656 0.006670013 -0.015612803 -0.011486687 0.009448901 0.012399875 0.004285358 -0.040769827
0.008164465 -0.03609159 -0.049438477 -0.08711779 0.012062952 -0.058783542 -0.08967763 0.05366523
0.07298339 0.046740957 0.046105392 -0.09579152 -0.027432516 0.05333186 -0.08348633 0.0272936
0.07591144 -0.068937525 0.0001154691 0.028689943 -0.062726796 0.00425297 0.09634856 -0.08399157
0.060554795 -0.07500863 0.03199459 0.027290232 -0.016559638 0.08000816 -0.090770245 -0.03534387
0.0073513836 -0.048817363 -0.0644162 -0.09034727 -0.07841422 -0.00481192 -0.068196684 0.02195295
-0.046420038 0.07644374 0.02113054 0.06883801 -0.0008109808 0.014953949 -0.039396644 0.06920088
0.049650498 -0.08963948 0.009602845 0.07835125 0.041297905 -0.030176982 -0.095105246 -0.008685388
-0.07765114 0.07564906 0.019348286 -0.056175172 -0.08286613 -0.06736782 0.07289893 0.03417354
0.08395042 0.041879885 0.0067964196 0.061052494 0.01616545 0.06790761 0.03497287 0.03979046
0.0005872026 0.020489953 -0.06393448 -0.023262955 0.014461733 0.079237886 -0.03824953 0.0455193
00000000: 8b37 b9bd 7068 27bd 605f 42bb 8087 8cbd
00000010: 32c4 90bd 05cb 873d 2040 58bd abbd ac3d
00000020: 74cb d5bc cad2 3e3d d77f a03d 51be 8f3d
00000030: 6e95 85bd fa6d c5bd 9ebc a3bd ab54 943d
00000040: 43a2 95bd 671c 8f3d ce10 87bd 0979 cc3d
00000050: b21c 193d 9479 e33c be46 84bd cdf5 8d3d
00000060: 83ac 9f3d dad9 5d3d a4e3 f63c 3d98 c93d
00000070: 309a 39bc 6423 e33c e217 423d 73b5 1cbd
00000080: 2089 b0bc 54d1 883c 1223 133d 50a6 193c
00000090: e7fa 6cbd 7058 45bc 089c d6bc 32d9 253d
000000a0: b27b a6bd 80d3 8dbd 56fa 313d c54e ad3d
000000b0: 145f f73c 1d95 25bd 02fc 563d dbcd 813d
000000c0: e3c7 2cbd efd8 8d3d 300d 283c 0d43 63bd
000000d0: 1095 2ebd ae5a 313d 69bb c13d 63db b8bd
000000e0: a731 1dbd bba1 a0bd c8c6 993c 69f8 b83d
000000f0: 77b2 70bd 5d7b c23d c0d7 4bbb 05d8 913d
00000100: 2894 dcbc 0d9a 30bd 1902 9a3d 126d 163d
00000110: 5c0f f83c 8044 40bd a831 3ebc 00a7 a13c
00000120: 28dd 8b3c 6372 9c3d a0df 9fbd 408b c1bc
00000130: 9435 b63c 2bfd b5bd 726c a5bd ab28 af3d
00000140: 30d4 33bc 3804 b8bd 3750 c83d 637f 40bd
00000150: 4830 a9bc 6a42 6dbd 321f 4d3d 40ac 0b3b
00000160: 44b1 f03c d0dc b43b a118 b23d 96da 7a3d
00000170: 961e 17bd a028 eebb 34a9 c63c 74b8 f9bc
00000180: e081 a83c 09fa a03d b39a 29bd 7e82 1a3d
00000190: d0d4 c8bd ae8c 643d 7aa9 9abd c8a5 af3c
000001a0: aa5b 11bd 94b4 be3c 8d14 a53d 2dbd afbd
000001b0: 688b c0bc 40ac 4f3b 5801 e0bc e8ec 753c
000001c0: d369 8a3d 2090 da3b d8cc 7fbc a832 3cbc
000001d0: 90cf 1a3c d828 4b3c 306c 8c3b 43fe 26bd
000001e0: 40c4 053c c6d4 13bd 0080 4abd d06a b2bd
000001f0: b0a3 453c 03c7 70bd e8a8 b7bd 12d0 5b3d
00000200: 5178 953d 7273 3f3d 02d9 3c3d 582e c4bd
00000210: 28ba e0bc 8272 5a3d e2fa aabd d496 df3c
00000220: 7577 9b3d 1e2f 8dbd 0028 f238 2c07 eb3c
00000230: e876 80bd 805c 8b3b 6552 c53d c603 acbd
00000240: 4e08 783d 209e 99bd c20c 033d c48f df3c
00000250: 14a8 87bc 51db a33d c0e5 b9bd bcc4 10bd
00000260: e0e3 f03b b7f4 47bd a4ec 83bd fd07 b9bd
00000270: a297 a0bd 50ad 9dbb b4aa 8bbd acd6 b33c
00000280: f022 3ebd 898e 9c3d f419 ad3c f1fa 8c3d
00000290: 0098 54ba 6801 753c 605e 21bd 31b9 8d3d
000002a0: 525e 4b3d e794 b7bd 4055 1d3c 9f76 a03d
000002b0: fe27 293d b835 f7bc 8ac6 c2bd 284d 0ebc
000002c0: 9007 9fbd e5ed 9a3d 4c80 9e3c f017 66bd
000002d0: b8b5 a9bd 24f8 89bd 094c 953d 8ef9 0b3d
000002e0: 33ee ab3d 3e8a 2b3d 80b4 de3b 2e12 7a3d
000002f0: 686d 843c 2513 8b3d b63f 0f3d 52fb 223d
00000300: 80ee 193a 8cda a73c 15f0 82bd f491 bebc
00000310: e8f0 6c3c 7947 a23d 8aab 1cbd 7272 3a3d

action_value.4.bias f4 [2]
0.008849144 -0.055796564
00000000: 00fc 103c f08a 64bd
